mnist/weight/model_weights_99.45.pth (torch, 43570 bytes, 56 tensors)

block1.conv1.weight f4 [5, 1, 3, 3]
00000000: b009 83be 0e62 cd3e 2d6d cfbf 9bbf 703f
00000010: 48fe 4b3f db4e 34bf b7e7 f33f daa1 923f
00000020: af95 adbf 4783 3fbf 25f9 8abe 4c22 133f
00000030: a565 efbf 2e42 d5be 915f e33f 0858 f3bf
00000040: 82c0 38bd 3abe a23f a7b0 5e3c c141 dabf
00000050: 75ac c0bf 2a2d ac3f 9c4f 033f 0608 193e
00000060: 4eba f33e cd58 a23f 16d3 2cbc 2893 21bf
00000070: 619d 1c3e 9ff9 a53e 4ea9 64bf 09e5 81bf
00000080: 6b35 dfbd c18d 23be ad2c 57bf d0b2 02be
00000090: f4e9 22bf 97f7 bfbf d91d b1be 5186 53bf
000000a0: 2bcf 4cbf a6d3 c53e 08f2 143f 9cd1 2740
000000b0: f685 0840
-0.25593328 0.40113872 -1.6205193 0.94042367 0.7968488 -0.70432824 1.9055089 1.1455643
-1.3561305 -0.7480969 -0.27143207 0.5747421 -1.8702894 -0.41652054 1.776354 -1.901124
-0.045105465 1.2714303 0.013591922 -1.7051316 -1.505263 1.3451283 0.5129335 0.14944467
0.47603077 1.268335 -0.010548374 -0.6311517 0.1529441 0.32417008 -0.8932084 -1.0148021
-0.108988605 -0.15972044 -0.84052545 -0.12763524 -0.63638234 -1.4997433 -0.34593084 -0.82626826
-0.80003613 0.38638037 0.5818181 2.6221685 2.1331763

block1.conv1.bias f4 [5]
00000000: 0e31 933e 073f 61bf e604 1cbf 4653 e13f
00000010: dd35 3140
0.28748363 -0.879868 -0.60944974 1.7603538 2.7689126

block1.bn1.weight f4 [5]
00000000: 68e8 e13f 59ed f43f b1fa a33f 494f 933f
00000010: 02d0 0740
1.764905 1.9134933 1.281088 1.1508571 2.1220708

block1.bn1.bias f4 [5]
00000000: a8c4 3fbf f761 123d a180 69bf f067 793f
00000010: 9eed a2bf
-0.7490945 0.035737958 -0.912119 0.9742422 -1.2728765

block1.bn1.running_mean f4 [5]
00000000: a396 723f e42f eb3e e776 e43e 1ac4 0e40
00000010: 7577 4c40
0.94761103 0.45934975 0.44621965 2.230719 3.194791

block1.bn1.running_var f4 [5]
00000000: a3a3 aa40 abe9 1b40 1163 0640 95d6 bf3f
00000010: 28ad 2441
5.332475 2.436137 2.0997965 1.498736 10.292274

block1.conv2.weight f4 [5, 5, 3, 3]
00000000: f4f3 19bf 6f1b 443f 9cbe db3e c616 fabc
00000010: 49e3 053f d39d 153f 6d16 393d cacf b83e
00000020: 1383 0f3f 557d b4bd 729c 3c3a 6343 c1bd
00000030: 0552 3f3e 1699 af3e 3ae1 763d 2a79 7f3f
00000040: acbf 343f 01e0 e53d b37e 15be 230c c93e
00000050: d1d3 a53e 6943 4fbf 94be 0cbf 45d3 f0bc
00000060: eaff acbf 402e 00bf 3679 943e 3496 9e3e
00000070: 740b d1bb 3de3 c7be 9d11 313e 95ce cabe
00000080: 3467 d9be a6e3 9cbe 017d 0fbf 733d debe
00000090: 2a7b 3c3f 9fef d13e 6a78 93be 81d3 b43e
000000a0: 976d f4be cf2d a1be fd37 13be ead9 3fbf
000000b0: e9be b8bd f8b0 3fbf 5aea d83e 7f6d 133f
000000c0: e5e1 7cbf d600 80be 0025 da3e 20ee 58bf
000000d0: a8e9 063e c6bb b43e fa74 77be 626c 0e3f
000000e0: 222b fe3e d111 5cbe f10e 3d3f e596 a3be
000000f0: 6adb 8abe bf18 4cbf 6698 87bf eb35 06bf
00000100: 81ff 3b3e 2e76 253f 89d6 0ebf 50f4 aebd
00000110: f994 803e 149c c7bd f24f dbbe fe09 59bf
00000120: 69d7 2e3e 9d70 cbbd a325 ddbe 97fa fb3d
00000130: 6d32 8ebe 1ea1 f7be c431 7dbe 4266 0fbf
00000140: 65d4 37bf 0eb6 1bbf 0157 a1be 7f89 623e
00000150: 042c 423f c6e0 7e3f af9f 81bd f6bd c33f
00000160: 395f 66be fcf6 edbf 38fe 86be 7d95 05be
00000170: d2ee df3e 1a30 053e b2e1 0d3f b4d6 263f
00000180: 962f 253e f945 83bd beb3 b5bd 22de fe3e
00000190: 3e59 303f 4126 963e b8f2 743e 4f38 c53e
000001a0: c755 ca3e 3a8c 10bf f0e1 96be 5deb a73e
000001b0: 8607 a43e cbaa bb3d 65bb 4d3f ef39 aa3d
000001c0: c494 58be 39e0 183e afb9 203c ba7f 0cbf
000001d0: da25 70be 45af 923e e821 ef3e 5963 553d
000001e0: 0926 163f e0bc 8a3e 33be 6c3e fe0d 613d
000001f0: 4fd1 d1bd dc1e 7abd 7135 b83d 677d 2a3f
00000200: ffb7 8b3f 39de 853f dfa2 403f 6be9 583f
00000210: 1565 c2be 4f93 1bbf b541 fdbe 9ff1 073f
00000220: 0678 2a3f 6125 eabe 18b6 b33e 404f 59bf
00000230: e9d4 acbf 4634 243f aa46 98bf 8f01 82bf
00000240: cd6a 9d3f 8fcd 823f 1851 5a3f 4bfe a3bd
00000250: f6b9 88bd 75a7 0ebc eae0 90bf 33ed cabf
00000260: e86a 61bf 83f5 55ba da3b 8c3c 7425 22bf
00000270: 4672 5ebf e903 b3bf 7ac2 93bf 0662 bc3d
00000280: cd4c 57bf 38a0 d7be defd 2cbf 2907 cdbe
00000290: e4ab f9bd 7a2c b6be 5ba5 dd3e 0509 e33e
000002a0: ff04 75bf b983 92bb 3f2a 173f b107 bc3e
000002b0: 7f4d 0dbf 53c3 37bf f9fa 77bf 9b78 c4bf
000002c0: a477 76bf b0f5 dc3d 8ec7 343f bb1d 9f3f
000002d0: ae47 453f ec8c e13d 4f85 f2be 1bb8 f5be
000002e0: ac62 d13d 12cb 0f3f d411 adbf 77f1 61bf
000002f0: 0867 583e 14ef 8fbf e1ce 26bf 15ef 103f
00000300: f5d4 47bf 4f60 b8bf cbe8 a2bf ca1e 363e
00000310: 81cb efbe 14d4 4ebf bbc7 9abe e0d9 95bc
00000320: db98 d4be 3c67 0a3e ad82 e03e aa52 a6be
00000330: 0ecc 2abf e625 afbd a759 3c3e 4aee 00bf
00000340: 8a5c b0be b989 83be b4c3 38bf 6224 65bf
00000350: 23fb 6bbf 7b12 a03e dc35 453e 8a5d 2dbf
00000360: 1227 473e d02a 193f f6fc c53f 9cec 88bd
00000370: 2945 993e b4d3 393f 36f8 16c0 998c 82bf
00000380: 90fc b5bd
-0.6013787 0.7660436 0.4291886 -0.030528437 0.52299935 0.58443946 0.045187403 0.3609603
0.5605938 -0.08812968 0.0007194943 -0.09436681 0.18683632 0.34296483 0.060273387 0.99794257
0.7060497 0.11224366 -0.14599113 0.39267072 0.32388166 -0.80962235 -0.549783 -0.029397616
-1.3515599 -0.5007057 0.28998727 0.3097397 -0.006379539 -0.39040557 0.17291875 -0.39610735
-0.4246155 -0.30642432 -0.56050116 -0.43406257 0.73625433 0.4100313 -0.28802806 0.35317615
-0.4773986 -0.31480262 -0.14376827 -0.74941885 -0.09020788 -0.7487941 0.42366296 0.5758895
-0.9878219 -0.25000638 0.42606354 -0.8473835 0.1317507 0.3529951 -0.24165717 0.5563413
0.49642283 -0.21491171 0.73850924 -0.3195106 -0.27120525 -0.7972526 -1.0593383 -0.5242602
0.18359186 0.6463345 -0.55796105 -0.08542693 0.25113657 -0.097465664 -0.4283443 -0.8478087
0.1707436 -0.09933589 -0.43192777 0.123036556 -0.27772847 -0.4836511 -0.24726015 -0.5601541
-0.71808463 -0.6082467 -0.3151169 0.22122763 0.7584841 0.9956173 -0.06329285 1.5292346
-0.22497262 -1.8590999 -0.2636583 -0.13045307 0.43736893 0.1300663 0.5542251 0.6517136
0.16131434 -0.064098306 -0.08872174 0.4977885 0.6888617 0.2932606 0.23920715 0.38519523
0.39518568 -0.5646397 -0.29469252 0.32796755 0.3203699 0.091634355 0.80364066 0.08311831
-0.211505 0.14929284 0.009809895 -0.54882395 -0.23451939 0.28649345 0.46705556 0.0520967
0.5865179 0.27097225 0.2311943 0.054944985 -0.102450006 -0.061064586 0.08994568 0.665976
1.0915526 1.0458442 0.7524852 0.8473117 -0.37967744 -0.6077165 -0.49464193 0.5310306
0.6658939 -0.45731643 0.35099864 -0.8488655 -1.3502475 0.6414226 -1.1896565 -1.0156726
1.2298218 1.0218982 0.8527999 -0.08007487 -0.06676094 -0.008706917 -1.1318638 -1.5853637
-0.8805375 -0.0008161889 0.017118383 -0.633384 -0.8689312 -1.3985568 -1.1543725 0.09198384
-0.84101564 -0.42114425 -0.6757487 -0.40044525 -0.12190989 -0.35580808 0.4329022 0.4434282
-0.9571075 -0.004471269 0.5904884 0.36724618 -0.55196375 -0.71782416 -0.9686733 -1.5349306
-0.9627631 0.10789049 0.70616996 1.2430948 0.770625 0.11013207 -0.4736733 -0.47992024
0.10223898 0.56169236 -1.3521066 -0.8825907 0.21133053 -1.1244836 -0.6515942 0.5661481
-0.7805932 -1.4404391 -1.2727293 0.17785183 -0.4683495 -0.80792356 -0.30230507 -0.018292367
-0.4152287 0.13515943 0.43849698 -0.32484943 -0.6671761 -0.085521504 0.18393575 -0.503636
-0.34445602 -0.25691012 -0.7217362 -0.8950864 -0.9218008 0.312641 0.19258827 -0.67720854
0.19448498 0.5983095 1.5467823 -0.06685755 0.29935578 0.7258866 -2.3588996 -1.0199157
-0.08886063

block1.conv2.bias f4 [5]
00000000: bde9 c83d 48d7 26bf b057 f13e 4a3c 633f
00000010: 0e85 72be
0.09810207 -0.65172243 0.47137213 0.8876387 -0.23683569

block1.bn2.weight f4 [5]
00000000: 5f99 e73f da24 e33f 5d89 ec3f 966e 2340
00000010: 458e cc3f
1.809368 1.7745621 1.847942 2.5536246 1.5980917

block1.bn2.bias f4 [5]
00000000: 8b34 93be 5548 37be 3d40 4abf 88eb 103f
00000010: 708e dfbe
-0.28751025 -0.17898686 -0.7900427 0.5660939 -0.4366336

block1.bn2.running_mean f4 [5]
00000000: 3cf7 2f40 a262 fd3f 93f2 2540 883b 4f41
00000010: 38c6 0f40
2.749465 1.9795725 2.5929306 12.952034 2.2464733

block1.bn2.running_var f4 [5]
00000000: c422 4d42 2466 1242 ba7c 4442 bd8f 5c42
00000010: 1e0c fa41
51.28395 36.599747 49.121803 55.14037 31.255917

block1.conv3.weight f4 [5, 5, 3, 3]
00000000: f243 423f 5ee7 b23e 6cbd 97bd 7581 90be
00000010: fca5 733e d4a4 913e 9261 c6be 2391 c8bd
00000020: 8864 773d 45d6 3ebe e0c3 edbe a179 093f
00000030: 5d05 08be f83c 93bd 31a6 5fbf c6bf 88bf
00000040: c642 ffbe 49f9 16bf 0c9c 0fbf 35b6 96be
00000050: bdc1 dbbd 7b5b 0ebf 5c6d 0cbf cc36 1fbe
00000060: 941e bcbc 6780 b1be d3d8 69bf 25e1 84bf
00000070: 47a4 03c0 48e7 b5bf f5c9 3fbf 01cb 9dbf
00000080: 4793 bbbf e666 2f3f c9b3 e63d 55e1 99bf
00000090: 4ca3 b03e 750f f73e 2868 55bd 7e1e 953e
000000a0: e1f0 5f3f 2c01 4d3f 9cd0 c53e 852e 9f3e
000000b0: e431 3c3f e236 a2bc c6cc c23b a4bf d7be
000000c0: 7280 43be eb18 9f3e dd8e 223e 27c7 cb3e
000000d0: 2745 8a3f 3998 d03e 2dbc cb3e 8d83 923f
000000e0: 6e96 3c3f d5f0 373f a85f 553f 0b8b d3bd
000000f0: 8d58 373c 8f30 763e 17c4 8a3c b28e 2ebf
00000100: cb13 9dbe 6b9a 10be 5fe5 e3be 30de 1d3e
00000110: 08b5 2c3d e58c eebe 79a8 51be a501 75bf
00000120: 8e7b 9cbf 88fd 7abf 2840 c9bd ed1e cbbf
00000130: f0ee 6bbf 52d4 8f3f d83e d1bf ebf9 983e
00000140: 6468 4b3f 25b9 a03e 35ca 69be 56e7 40be
00000150: d51c 94bf 5776 093e 1b67 eebe 8e77 20bf
00000160: fade ad3d 7a31 5d3d 7cca 1f3f 9d58 e13e
00000170: 153f 573e 89e7 d03d 8eb4 49be eb3e 08bf
00000180: a87e dcbe c51e abbf 5f55 29bf 09ba 733f
00000190: b556 bebe 40ff 98bd 96e9 8abf 26f9 fabe
000001a0: 813a f03e 9fdb 04bf 3004 ac3e f075 aa3f
000001b0: 60af 193f d499 bd3d e0c7 a63c caa3 a0be
000001c0: bcd4 97bf 0ce7 34bf 33ed d1be 6e1b 1ebf
000001d0: 832b ad3d 4b49 1d3e 879b 913f e001 6b3f
000001e0: 52e5 b53f e419 a83e d67e 28bf 83a8 efbe
000001f0: 8237 8abf d579 42bf 2b48 6e3f fac9 873f
00000200: 01c8 073f cde0 b2bd dc20 25bf f51c aabe
00000210: 3da0 c73c 2a86 c3be 474b f9be d0a7 d2bf
00000220: 1c14 b5bf 32c2 77bf 3fa3 18bb 73d9 9abe
00000230: 5511 35bf a123 a63f ee13 3d3f f3cc cb3d
00000240: 210c 14bf d1b1 4abe f932 a43d 4d01 ac3d
00000250: 18f5 43bf fcb4 42bf 2be0 853e c3c3 89be
00000260: 73a3 08bf d88c 0ebf f5a4 82bf 2f38 44bf
00000270: eb62 a23e 106b 3bbf d12b c6bf 873b 783f
00000280: 6814 043f 726c d3be aa16 0cbe 816e 6b3d
00000290: 28cc 5d3f 824f 69bf fa87 0fbe 40db 983d
000002a0: 5645 84be 1975 293c 5e35 a5be b9a4 373d
000002b0: 4cc1 7a3e 1256 dc3e 78dd d53e 0ce5 8dba
000002c0: 9f96 1ebe d70a 77be 9b68 a4be c848 a5be
000002d0: 57f6 993d 446b dbbe fe33 9fbc a650 fcbd
000002e0: 658b b1bd 4839 b6bc a459 88be abca 19bf
000002f0: fdee c5be 651b e8be 1132 64bd 98dd e63e
00000300: 51b5 943e 4322 003e a6f3 f33e ff89 863e
00000310: 98d0 bcbe 5072 31bf 4356 9ebe 3c51 e7bc
00000320: 7e20 b43c 9364 283e d2a4 d23e fcab 463f
00000330: 3dc7 433f 5506 443f c1d6 363f dd9e c63e
00000340: d1b8 603f ae41 e33e 05da 6dbf f464 39bf
00000350: a0bc acbe 828c 5fbf fb45 8dbe 6f67 44bc
00000360: f888 b9bd 8fd4 733c 890f 8fbc f2aa 943e
00000370: caed b93e 9fcc 893e d1ea a23f 290b a43f
00000380: 7a41 873f
0.75884926 0.34942144 -0.07409176 -0.28223768 0.23793787 0.28446066 -0.38746315 -0.09793308
0.06039861 -0.18636425 -0.46438503 0.53701216 -0.13283296 -0.07189363 -0.8736296 -1.0683525
-0.49855632 -0.5897413 -0.56097484 -0.29435888 -0.10730312 -0.5560834 -0.5485437 -0.15548247
-0.0229638 -0.34668276 -0.9134647 -1.0381209 -2.0569017 -1.4211206 -0.74917537 -1.2327577
-1.465432 0.68516386 0.1126476 -1.2021891 0.34499586 0.4825398 -0.052101284 0.29124826
0.8747693 0.80079913 0.3863572 0.3109018 0.7351363 -0.01980156 0.005944821 -0.42138398
-0.19091967 0.31073698 0.1587481 0.3980038 1.0802354 0.40741137 0.39792004 1.1446396
0.7366704 0.71851856 0.83349085 -0.10329255 0.011190546 0.24041961 0.016939206 -0.68186486
-0.30679163 -0.14121406 -0.44510934 0.15416789 0.042164832 -0.4659187 -0.20474423 -0.95705634
-1.2225206 -0.9804311 -0.0982669 -1.5868813 -0.92161465 1.123667 -1.6347303 0.29878172
0.7945616 0.31391254 -0.22831042 -0.18838248 -1.1571299 0.1342405 -0.46563038 -0.62682426
0.08489795 0.054002263 0.6241834 0.4401292 0.21020158 0.10200412 -0.19697782 -0.53221005
-0.4306538 -1.3368765 -0.6614589 0.9520574 -0.37175527 -0.0747056 -1.0852535 -0.4901821
0.46919635 -0.51897615 0.33596945 1.3317242 0.60033226 0.09257856 0.02035898 -0.3137496
-1.1861796 -0.7066505 -0.4100128 -0.61760604 0.08455565 0.1535999 1.1375588 0.91799736
1.4210608 0.32832253 -0.65818536 -0.46808252 -1.079819 -0.7596715 0.9307887 1.0608513
0.53039557 -0.087342836 -0.64503264 -0.33225217 0.0243684 -0.38188297 -0.48690245 -1.6457462
-1.4146762 -0.96780694 -0.0023290662 -0.30244026 -0.7072957 1.2979623 0.73858535 0.099512
-0.5783101 -0.19794394 0.08017535 0.083986856 -0.7654586 -0.7605741 0.2614759 -0.26907167
-0.53374404 -0.5568366 -1.0206591 -0.7664823 0.31716093 -0.7321024 -1.5482122 0.9696583
0.5159364 -0.41293675 -0.1368052 0.05747843 0.8663964 -0.91136944 -0.14016715 0.074636936
-0.2583415 0.01034286 -0.32267278 0.044834826 0.244878 0.43034416 0.4177053 -0.0010825708
-0.15487145 -0.24125229 -0.32111058 -0.3228209 0.07517689 -0.42855275 -0.019433971 -0.1232007
-0.086691655 -0.02224411 -0.2663089 -0.6007487 -0.38658896 -0.453334 -0.05571181 0.45090938
0.29044583 0.1251307 0.47646827 0.26277158 -0.36877894 -0.6931505 -0.30925187 -0.028236978
0.02198815 0.16444616 0.41141373 0.7760618 0.7647589 0.7657216 0.7142144 0.38793078
0.8778201 0.44386047 -0.92910796 -0.7241967 -0.3373766 -0.8732377 -0.27592453 -0.011987551
-0.09059328 0.014882221 -0.017463462 0.2903667 0.3631423 0.26913926 1.272791 1.2815906
1.0566857

block1.conv3.bias f4 [5]
00000000: 6330 233d 88ad 59be 0d80 a03e 44af 7a3e
00000010: fe7e 3fbe
0.039841067 -0.21257603 0.31347695 0.24480921 -0.18700787

block1.bn3.weight f4 [5]
00000000: 26a3 0540 4995 0440 8e58 0240 03a7 0540
00000010: 64d2 1140
2.0880828 2.0716116 2.036655 2.0883186 2.2784662

block1.bn3.bias f4 [5]
00000000: 26f9 73bf 3918 e23e a318 c1be 2a04 d03e
00000010: 27ce d2be
-0.95302045 0.44159105 -0.3771411 0.40628177 -0.41172907

block1.bn3.running_mean f4 [5]
00000000: c085 8340 50b7 9340 9bd5 eb40 7297 d740
00000010: c350 2a40
4.110077 4.616127 7.369825 6.737237 2.6611793

block1.bn3.running_var f4 [5]
00000000: 7229 b742 ecf5 1443 2bfd 3642 191b f041
00000010: ebb5 ab42
91.58095 148.96063 45.747234 30.013231 85.85531

block2.conv1.weight f4 [10, 5, 3, 3]
00000000: 87dd d3be ff52 03be 1edd 27bf 6fca 733e
00000010: 4d2c 14be a05b 8cbf a2bb a53f 114c 643f
00000020: e77d 72be c3c1 d23e 9436 593e 9207 1e3f
00000030: 6bb7 b03d 84f2 abbd 7f0f 803e b8f8 85bd
00000040: bd84 0dbf 7ce6 f0be 7b8e df3e f752 533f
00000050: 15ec 373d 8551 1abf 052f 76be ac93 d83e
00000060: e11a bdbe e4e6 803e 35d1 473e f211 0dbe
00000070: 9f39 febe c1fb bebe 115f 053f 3b8d d23d
00000080: 2471 733e e590 bbbe ff63 9a3e 8b74 2e3e
00000090: 4192 fdbe d0e1 1abf 4519 61bf 8b4d 083f
000000a0: 5e6d 453f 505f 49be 058a d93e b238 c53e
000000b0: b0f2 9d3c 4a8c ea3e c542 b0be 26f4 b33d
000000c0: ad6f e03d db3b 243f a24d f3be 7fd8 873d
000000d0: 16e2 663f 30b7 863f ea2c c4be f73b b23f
000000e0: bbd5 b53f 06ee 1ebf f685 303f 4146 2f3f
000000f0: 1c9b 95bf ea8c 08bf 6f89 13bf 39e4 a43e
00000100: 6c68 ea3e 91d6 893e d658 6bbf ed4f e2bf
00000110: 30ac be3e 3ace 9abf 5b27 53bf b429 2b3f
00000120: 314b 48be 9cee 31bf bd8a 19bf 38eb 58bf
00000130: 1f3a 84bf 60a4 20be b59b 84be d189 8dbe
00000140: 7bce 053f 3518 d4be c8b6 793d 59b1 61bd
00000150: 96ed 97bf c7f8 f6be 899b a73e d624 1fbf
00000160: bd11 4ebf ea9c 713f 1777 9fbf 1a31 03bf
00000170: 5699 bc3e df00 58bf 0254 80be 3b5d b3bd
00000180: db77 c0bc ec8c 353f 2e3b 533f b2f3 24be
00000190: 10b1 15bf ade1 cb3c 10ca 0f3d 2410 413e
000001a0: d23e ce3e 505a 853e b7d6 efbd fd93 4d3f
000001b0: faef f3bc 7d73 193f 0341 683c b73b adbe
000001c0: ffa7 0e3e 87ee 913e 95bd 67bf 6678 14bf
000001d0: 8573 3b3e 2849 bb3e 5fed 613e 5375 643e
000001e0: 6e30 843e 83d8 1a3e 7d0a 053f 0297 663e
000001f0: 5410 68be b0a8 88be fad9 21bf a867 0bbe
00000200: ab9a 6b3e f787 28bf ee87 babc 31a9 df3e
00000210: 007f c5be ca02 173f a37f a73f 3926 fb3d
00000220: 4973 333d 43ac 113f 46b4 58be 7380 193e
00000230: d093 2b3f 37be e93e 5634 073e 3add 3cbe
00000240: feed b23e 83c5 99bb c0d4 803f ed07 db3e
00000250: 30a2 5a3f 874a 9f3f 9571 7c3e f147 b3be
00000260: 437f a23e 06ba 213e 2d85 e63e 2d31 003e
00000270: d587 9dbd 54b6 9cbe 262f 3abf 1690 b4be
00000280: 9efa 273f 025a 453f a7d6 c9bd 4e70 6ebe
00000290: ad3f 49be d14a 89bd 5ea5 2ebf 63b9 aebf
000002a0: cc57 01bf 4a6f 32bf 3fb3 21bf a71f b23e
000002b0: 2039 59bd d767 c53e 7bc8 9d3e b3b4 f63e
000002c0: 1663 f9bd 93cf 7a3d a9ed abbe 75bc 6dbf
000002d0: 5ad0 5c3f 878a 503f f342 46bf 1104 cabd
000002e0: bcb5 fc3e bba1 31bf e088 5b3c 3c17 1f3f
000002f0: c19b f63e 8fd5 d6be 34ef f03d 8764 f73e
00000300: 2612 c5be 699b a53e c207 893f 23d5 ad3f
00000310: f075 473f c7b2 833f 0611 873f ee52 10be
00000320: c884 cbbe 8217 143f 03c1 92bf 40e7 30bf
00000330: e681 203f 7492 36bf b986 06bf fc3a 9f3e
00000340: 58b3 b93e 6afa 8d3f 4495 03bf cfc4 4ebf
00000350: 1984 a2bd 76c9 74bf 641d b1bf 98af e6bd
00000360: 0a9f f93d fddf b0be 6349 abbe 905d 9cbe
00000370: 56e6 a9be 64e3 c5be b48c 043f dde5 14be
00000380: cfae f63d f675 4c3f 427f a03d ac73 963e
00000390: 2018 d23e 9069 cc3d 71cf 413e cb48 403f
000003a0: 0335 033f b2ee 79bc 2c9a 4f3f 47cc ea3e
000003b0: ee0d fd3e 4df1 17bf 1b85 37bf f040 e139
000003c0: 1f1e c9be 98c5 a6be 1c36 8cbe 4513 f4be
000003d0: fb96 093c aa3a 263f 25a7 8e3e abf7 103f
000003e0: 1dd4 633e eaba 8fbd 0f44 41bf 62fe 0bbe
000003f0: 7578 96be c094 09bf 178d 1dbe 4abd bbbd
-0.4137995 -0.12824629 -0.65571773 0.23807691 -0.14470024 -1.0965462 1.2947886 0.8917857
-0.2368084 0.41163453 0.21212226 0.617303 0.08628734 -0.083958656 0.25011823 -0.0654158
-0.5528067 -0.47050846 0.4366339 0.8254847 0.04490288 -0.6028064 -0.24041374 0.42300165
-0.3693457 0.25176156 0.195134 -0.13776377 -0.49653336 -0.37301448 0.52098185 0.10280844
0.23773628 -0.36633983 0.30154416 0.17036645 -0.49525645 -0.6050081 -0.87929183 0.5324332
0.77120006 -0.19665265 0.42488113 0.38519818 0.019280761 0.45810157 -0.3442594 0.08786802
0.109588005 0.6415383 -0.47520167 0.0663309 0.9018873 1.0524654 -0.38315517 1.392455
1.420585 -0.62081945 0.6895441 0.68466574 -1.1687961 -0.5334002 -0.5763158 0.3220537
0.45782793 0.26921514 -0.9193243 -1.7680641 0.37240744 -1.2094185 -0.82481927 0.6686051
-0.19559933 -0.69504714 -0.5997732 -0.84733915 -1.0330237 -0.15687704 -0.25900045 -0.27644208
0.5226819 -0.41424718 0.06096533 -0.055100773 -1.186938 -0.48236677 0.3273585 -0.6216558
-0.80495816 0.94380057 -1.2458218 -0.512468 0.36835736 -0.8437633 -0.25064093 -0.08758017
-0.023494652 0.70918155 0.82512176 -0.16108587 -0.584733 0.024887884 0.03510481 0.18853813
0.40282303 0.26045465 -0.117108755 0.8030394 -0.029777516 0.59941846 0.014175656 -0.3383462
0.13931273 0.28502294 -0.90523654 -0.57996213 0.18305786 0.3657925 0.22063206 0.2231038
0.258182 0.15121655 0.5196913 0.22518542 -0.22662479 -0.26691198 -0.6322323 -0.1361376
0.2300822 -0.65832466 -0.022769894 0.4368377 -0.38573456 0.5898863 1.3085827 0.1226315
0.043811116 0.56903476 -0.21162519 0.14990406 0.6702242 0.45652935 0.13203558 -0.18443766
0.349472 -0.0046927347 1.0064926 0.42779484 0.8540373 1.2444619 0.24652703 -0.35015824
0.31737718 0.15793619 0.4502348 0.12518759 -0.076919235 -0.30607855 -0.7272819 -0.3526618
0.65616786 0.77090466 -0.09855395 -0.23285028 -0.19653197 -0.06703723 -0.6822108 -1.3650326
-0.5052459 -0.69701064 -0.6316413 0.34789774 -0.053032994 0.38555786 0.30817017 0.48184738
-0.12177102 0.061233114 -0.33579758 -0.9286569 0.8625542 0.81461376 -0.77445906 -0.09864057
0.49357402 -0.69387406 0.013399333 0.6214483 0.48165706 -0.41959807 0.117643744 0.48318884
-0.3849041 0.3234513 1.0705492 1.3580669 0.77914333 1.0288934 1.055207 -0.14094135
-0.39749742 0.5784837 -1.1465153 -0.6910286 0.6269821 -0.7131722 -0.5254932 0.3109969
0.3626964 1.1092045 -0.51399636 -0.80769056 -0.07935352 -0.95619905 -1.3837094 -0.112639606
0.121885374 -0.3454589 -0.33454427 -0.30540133 -0.33183545 -0.38650048 0.51777196 -0.14540811
0.12045061 0.79867494 0.078367725 0.29385126 0.4103403 0.09981072 0.18926789 0.75111073
0.51252764 -0.015254663 0.8109462 0.45858976 0.4942469 -0.5935257 -0.7168748 0.00042963726
-0.39280793 -0.32572627 -0.27385032 -0.4767095 0.008397813 0.64933264 0.27861896 0.5662791
0.22248884 -0.07018073 -0.75494474 -0.13671258 -0.29388776 -0.537426 -0.15385853 -0.091669634

block2.conv1.bias f4 [10]
00000000: 8bd4 403d 1a2a 13bf 52c2 933e cb6c f13d
00000010: 78bd 97be 7a57 37bd 8d0d 703e e481 cdbd
00000020: b125 3fbe 33f1 263e
0.047077697 -0.57486117 0.28859192 0.11788329 -0.2963674 -0.04476116 0.23442669 -0.1003454
-0.18666722 0.16302948

block2.bn1.weight f4 [10]
00000000: e861 d83f 2ad7 0e40 d78e b63f 25d4 fa3f
00000010: 0342 2340 77c9 913f 346e d93f 6e8c e63f
00000020: 570f c93f 7e7a f53f
1.6904879 2.2318826 1.4262341 1.9595991 2.550904 1.1389607 1.6986756 1.8011606
1.5707806 1.9178007

block2.bn1.bias f4 [10]
00000000: fa05 ef3c a91d b83e 10d7 593f f1e7 2b3e
00000010: 1c76 22be 1279 8abe 5e31 1b3e fba9 133f
00000020: e6d9 093f 58bb 5a3f
0.029177655 0.3596013 0.85093784 0.16787697 -0.15865368 -0.27045494 0.15155551 0.57681245
0.5384811 0.85442114

block2.bn1.running_mean f4 [10]
00000000: db20 9040 c5d7 4740 71f7 d040 ab49 c440
00000010: 2552 b340 7721 6340 4805 0f41 1ef7 9940
00000020: 65b0 6640 a188 cd40
4.5040107 3.1225445 6.5302052 6.1339927 5.6037774 3.5489175 8.938789 4.8114157
3.6045163 6.4229283

block2.bn1.running_var f4 [10]
00000000: e499 a842 ae0f ae42 85d6 a642 18ea 2543
00000010: b1d1 3c43 2467 7c42 e978 b642 30f9 f942
00000020: f6a1 5b42 45c9 2f42
84.30057 87.030624 83.41898 165.91443 188.8191 63.100723 91.23615 124.986694
54.908165 43.946552

block2.conv2.weight f4 [10, 10, 3, 3]
00000000: 655a 00bf e34a bb3e c937 423f b08b 85be
00000010: 2de5 9ebe 3d6c 96be c764 913d a990 2c3f
00000020: ee67 adbe 63f3 17bf 504f 663d d711 a43f
00000030: 57b4 9e3e 1d7c 95bf 9a99 13bf a142 473f
00000040: 34b2 76bf 94fc d2be cb25 93be 70bf 90be
00000050: 3169 d9bc b5d5 313f a369 2abf 2667 7dbf
00000060: 2328 c2bb 8d70 d23e ce27 b93e c7c2 a93e
00000070: bdbf 9f3b 81c5 08bf a172 53be e2a3 bdbe
00000080: 1da7 993d 597e db3e 520d ad3f 45ac 6f3f
00000090: 7ae5 7dbe 0f24 4d3e a23b c33d 0a18 c1be
000000a0: 0480 2d3f 5e96 aa3f f0ab 043d 4fee 263f
000000b0: c01c c83f 40cc 02bf f5fb 4c3d 3ac8 393e
000000c0: 1048 aa3c 716b 943e 69ce 183d 182b 873e
000000d0: c003 43bd 7989 aabe 70b6 cebe 1f0c e6be
000000e0: 99f4 27bf c941 d63e 0ab8 37be f67c 51bf
000000f0: d098 493e a006 353e 1f3e df3e cfb0 9e3d
00000100: b5fd 6c3e c760 743e 25f3 633c e9b6 cfbe
00000110: a628 b8be 7c9f d23d 323b bc3d dd94 84be
00000120: b293 fd3c 9b86 91be db87 033e 84b2 a7be
00000130: 70e6 eebe 56e4 1abf 5ac0 7abd c01a b6bd
00000140: 89c3 0e3e 0ab8 11be bf5d 50bf 106d 82bf
00000150: a40d 0abe 3888 5bbf 506f 60bf 1611 cb3e
00000160: f5ac b03e 998d ad3d 0ad9 0ebf 94d9 04bf
00000170: e6a9 05bf fc5d 273e a650 81bc a35c 1dbe
00000180: b351 0c3f 2660 cb3e 0ab5 103e a627 d3be
00000190: 0455 b43d e9a9 6d3f 00b1 16bf e753 673d
000001a0: 4a45 143f 5562 aabe 0de8 443d f6d1 3c3f
000001b0: 89fe 863e 2e09 59be b0ae 823d 86e3 873e
000001c0: 32a8 90be 8b71 db3c 41ad da3d 522f 903e
000001d0: 223a 323f 16bc 16bf 5b25 67bd d369 203f
000001e0: b2b1 3abf 6939 9ebe b403 d93e 99c7 bcbe
000001f0: becf 4abe da0e be3e e306 46bf 9dfb c0be
00000200: aeea 9d3f 656a 29bd db8c cfbe 00de 053f
00000210: c9b4 aebd 9e46 b13e e5d1 543f 0a41 1abf
00000220: 2538 0fbf 9c45 77be 3876 ccbe 6c2b 05bf
00000230: 530c b7be adf8 833e fa01 093e 7b77 c63e
00000240: 84c6 423e 8cb3 833e fa73 dc3e 8969 453e
00000250: f295 223e fc5a b53e a7db 2f3e b2ce 8fbe
00000260: 8aa8 183d 5fcf 46bf d8ff e7be 99c9 72bd
00000270: 8280 d6be afcc 9dbe 42f8 9f3e 6eb0 3cbe
00000280: e8d3 5fbe 5561 863e 4e7f d93d 7ccd 1abd
00000290: bf2f 1e3e 3c47 a13e 441e a73d cb8b ca3c
000002a0: 98c7 213f 52ae 303f d3b8 a73e 3de7 4e3f
000002b0: 5d5b a93e c3e0 2e3e 6630 f13e 4923 383e
000002c0: 45b5 be3c 13f8 bc3d b507 1abe bcbd cbbd
000002d0: 4ad5 1cbf db1a f0be b1c7 b2be 1169 843d
000002e0: 8d18 23be 83c1 c7bd 23c9 a2bd da57 a63e
000002f0: e39b 993e 0f48 a8be f761 a63e 2dc6 553d
00000300: f122 d3bf 35ca 0bbf 32c5 45be b09f f13d
00000310: 335c 913e 13c3 9fbe 4c73 85bf 0cf4 15bf
00000320: d49b 44bf f170 873f f420 013f 8bc6 7e3d
00000330: ada7 453f 4dee d03d dc4a f0bc 7bb4 02bf
00000340: db63 bf3d bee7 1c3e c1f3 61bf 9f36 3dbf
00000350: 91c4 c8bf b88f 993e abc9 a6be 46f0 cbbe
00000360: 0d4e b3bf 87cb 38bf c7fd 1bbf aa09 83be
00000370: fc91 48bf 2d4e 40bf 6527 093f 181c 213e
00000380: ba1f 4cbe df24 b53d cf40 033f a7ce 843e
00000390: dbf6 89be 2099 a73e 5339 5b3f 57e4 19bf
000003a0: a22f 39be bd10 323d 0866 a6be 4101 15be
000003b0: 44d0 6c3e f1b3 6dbf c864 72be a64b 30be
000003c0: 9321 91be a798 3abd e35f 89be 7be7 69be
000003d0: 2eb8 d33b b4c8 b73e 7af2 9abe 378e d9be
000003e0: 58a1 4bbf 09e4 9d3f e91e 393f e85e 963e
000003f0: e208 81bf 7c48 6fbe 2521 6d3e 8850 9ebe
-0.5013793 0.36580572 0.7586637 -0.26083136 -0.31034222 -0.29379454 0.070993 0.67408234
-0.33868355 -0.59355754 0.056227982 1.2817944 0.30996963 -1.1678501 -0.5765625 0.7783604
-0.96365666 -0.41208327 -0.2873977 -0.28271055 -0.026539417 0.69466716 -0.6656744 -0.9898552
-0.005925195 0.41101494 0.3616318 0.33156416 0.004875152 -0.5342637 -0.20649196 -0.37039095
0.075025775 0.42869833 1.351969 0.9362224 -0.2479457 0.20033287 0.095328584 -0.37713653
0.6777346 1.3327138 0.032390535 0.6520738 1.5633774 -0.5109291 0.050044972 0.18142787
0.020786315 0.2898822 0.037306223 0.26400065 -0.047611 -0.33308008 -0.40373564 -0.44931123
-0.656076 0.41847065 -0.17941299 -0.818313 0.196872 0.17678308 0.43602082 0.07748567
0.23143657 0.23865043 0.013912951 -0.40569237 -0.35968512 0.102843255 0.09190978 -0.25894824
0.030954216 -0.28423008 0.12844793 -0.32753384 -0.46660185 -0.60504663 -0.061218597 -0.08891821
0.13941778 -0.14230362 -0.81393045 -1.0189533 -0.13481766 -0.8575473 -0.8766985 0.39661473
0.34506956 0.08474273 -0.55799925 -0.518945 -0.5221237 0.16344446 -0.015785526 -0.1536737
0.54812163 0.39721793 0.14131561 -0.41241187 0.08805278 0.9283739 -0.5886383 0.0564765
0.57918227 -0.33278146 0.048072863 0.73757875 0.2636607 -0.21194908 0.06380975 0.26540774
-0.28253323 0.02678754 0.10677577 0.28161103 0.69619954 -0.58880746 -0.05643211 0.62661475
-0.7292739 -0.30903175 0.42385638 -0.3687103 -0.1980581 0.37120706 -0.7735426 -0.37691966
1.2337244 -0.04136123 -0.40537152 0.5229187 -0.08530576 0.3462419 0.83132774 -0.6025549
-0.55945045 -0.24147648 -0.39933944 -0.5201938 -0.3575159 0.25775662 0.1337966 0.3876303
0.1902104 0.2572292 0.43057233 0.1927854 0.15877512 0.35420978 0.17173634 -0.28087384
0.037270106 -0.77660173 -0.4531238 -0.05927429 -0.4189492 -0.30820224 0.31244093 -0.18426678
-0.2185818 0.26246133 0.106199846 -0.03779362 0.15447901 0.3149966 0.081600696 0.024724862
0.6319518 0.6901599 0.32758197 0.8082159 0.33077517 0.17077927 0.47107238 0.1798221
0.023279795 0.09227004 -0.15042002 -0.09948298 -0.61262953 -0.4689549 -0.34917977 0.06465352
-0.15927334 -0.09753706 -0.0794852 0.324889 0.30001745 -0.32867476 0.32496616 0.05219095
-1.6495038 -0.5460542 -0.19313505 0.11798036 0.28390655 -0.31203517 -1.0425811 -0.5857551
-0.76800275 1.0581342 0.5044091 0.062201064 0.7720898 0.10201702 -0.02933257 -0.5105664
0.09345218 0.15322778 -0.88262564 -0.7391147 -1.5684987 0.2999246 -0.32575735 -0.39831752
-1.4008194 -0.7218556 -0.6093411 -0.2559331 -0.78347754 -0.75119287 0.53575736 0.15733373
-0.19933978 0.08844923 0.51270765 0.25938913 -0.26946148 0.32734013 0.85634345 -0.60114044
-0.18084577 0.043472994 -0.3249972 -0.1455126 0.23126322 -0.92852694 -0.23671257 -0.17216358
-0.28345928 -0.045555737 -0.26830968 -0.22842209 0.006461165 0.35895312 -0.3026312 -0.42491314
-0.79543066 1.2335216 0.7231279 0.29369283 -1.0080836 -0.23367494 0.23157175 -0.30920815

block2.conv2.bias f4 [10]
00000000: bba7 72be 31f2 a4bc afd6 303e 347d af3d
00000010: 3968 b4be 7990 083e fa3d 82be a09d 1abe
00000020: f3db cd3d de28 453d
-0.23696797 -0.020135017 0.17269395 0.085688025 -0.35235766 0.13336362 -0.2543791 -0.15099192
0.100517176 0.048134677

block2.bn2.weight f4 [10]
00000000: 533e 0840 b5c5 f73f 6359 2240 ea1c f53f
00000010: 0505 0540 cc95 f03f 7c24 ec3f f893 0b40
00000020: b7f8 e13f ba72 e63f
2.128804 1.935721 2.5367057 1.9149449 2.0784314 1.8795714 1.8448634 2.1809063
1.7654027 1.8003762

block2.bn2.bias f4 [10]
00000000: 3641 d9be 8edc 463d c794 443f 27da f93e
00000010: aaec a9be 4d6a 2c3f f90f 783f 81f9 cf3d
00000020: c975 f93e f309 c63d
-0.42432564 0.04855018 0.76789516 0.4879925 -0.33188373 0.673497 0.9689937 0.10155011
0.48722675 0.096698664

block2.bn2.running_mean f4 [10]
00000000: 0c03 5b40 b115 e540 78e7 ef40 1e8b 8c40
00000010: 3409 d740 6a2f d440 aaa2 2b40 2fbc 3140
00000020: fc8d 2d40 24af 2e40
3.422061 7.158898 7.4970055 4.391982 6.7198734 6.630788 2.6818032 2.7771108
2.711791 2.7294397

block2.bn2.running_var f4 [10]
00000000: 402a b942 6b7b b242 0927 8f42 eb9b 5142
00000010: 2251 1243 65d3 8e42 d04d 5542 2f9b ee41
00000020: a760 1842 60b5 8f41
92.58252 89.24105 71.57624 52.402264 146.31693 71.41288 53.32599 29.825773
38.094387 17.963562

block2.conv3.weight f4 [10, 10, 3, 3]
00000000: d19f c1be 4642 33bf 75f7 5cbf 61c9 9b3e
00000010: 4048 303f b646 d5bc f561 8b3e ee89 783f
00000020: 8ee4 233f bb30 9abe bc64 8dbe c0e6 47be
00000030: 8538 22be 39d6 acbe e7b2 3dbf 65f4 aabe
00000040: 1faf 32be 7d29 15bf 3793 cf3e 7f3a 61bd
00000050: b926 97be 1349 e4bc 4a21 fcbe f05f 42be
00000060: f274 9e3d f6e3 9abe 55f6 f8be f63f 023e
00000070: 1944 23be 299d 3dbf 36bc 0b3f 2151 1c3f
00000080: 209c c53d 4912 73be 775a 813e 3e9c 803f
00000090: 3b5f ffbe 838d b6be 2a4d 22be 302b 2abe
000000a0: 5e2b d3be 9844 17bf 642b 5a3e 1c55 d0be
000000b0: 328a 89be 62f9 0d3f 732d 613e 6fb7 713d
000000c0: 9b9e a63e 3d1f bbbe dea4 12bf 880d 0dbf
000000d0: 2f94 05be 9327 afbe 431f 16be 0b03 983d
000000e0: 660d 0c3d cf88 8ebe dadf 1fbe 0c27 98be
000000f0: 40a9 e2be e8c5 79be 9d6e b6bd 93c3 56be
00000100: 61d0 a63e ecf6 283f 6930 2cbf 5ac8 25bf
00000110: 9ce8 cdbe 7a7c 8abd ed8e a1be 3ba2 1dbf
00000120: a608 e2be f639 85be 746c 9abe 1f12 273f
00000130: 6499 2c3f 883e 5c3e 8312 823e 5116 cebe
00000140: 380e 3fbe 9442 80be a3aa 02be b499 1abe
00000150: 8623 49be b9e5 e1be 1b39 f3be 3a84 8cbe
00000160: 75e8 18be b69b 14bf 4a26 183e bdad d7be
00000170: 7719 82bf 4a54 8fbe 5a35 b4be d4d5 8ebe
00000180: 4f89 b6bc b0b2 2a3e 8295 853d 89b8 d43d
00000190: 79b2 843d ea96 93be 8695 493d ae00 893e
000001a0: a2e0 593e d983 cebd 3c7a 1b3e 9458 0e3c
000001b0: 47c7 1abf 50f4 4abf 0760 34bf 9a9f 1cbf
000001c0: 4630 2cbf 2e79 183e d326 00be f179 cd3d
000001d0: 384c 6f3f 8022 19bf 19f3 97bf ff69 5cbf
000001e0: 52f9 b8be 0ffd 84be f0c0 f43b f628 843e
000001f0: a92a 983e b6ef 8ebf 2369 ffbd 528f e8be
00000200: 915d a0be 295d 21bf 680a f1be 4dfc 49be
00000210: 98ba 29bf c9b9 5bbe 6a46 ca3e a91d 08be
00000220: ad01 e83e 4bb8 303f 7e35 cbbe 80a0 c1be
00000230: 5021 cbbd a768 3abe dec9 37be 6f7e 00bf
00000240: ce58 973f 3ca0 7d3e c43d c83d 2d96 e63e
00000250: d59c e33d d1af 26be e45b 0bbf 4bef 02bf
00000260: 5f1d 64be 754f fabe 86da 98be 7d54 2fbf
00000270: bc5a 253f 500b bf3e 3ec3 163f e37d 543f
00000280: 40a2 cbbc cdc5 313e 5315 e83d ddac 183e
00000290: 9c95 f0bd d0bf 28be 4278 e5be ae28 e6bb
000002a0: 1ab0 2abf 5a78 09bf 0ea9 a0be 4e4d 923e
000002b0: 7934 6c3f 9774 dfbc 5cf1 6c3d 5c60 4fbe
000002c0: f9f4 03bf e431 a8be 91bf 4f3e d652 0b3d
000002d0: 67a3 6cbd 5d26 c73e 54c8 3a3f 5851 a1be
000002e0: 8de7 0abf 7dbe 423d 3d25 cdbe e1f5 d9bc
000002f0: 2b53 2a3f 93ad bc3e 95ba a7bc 387d 51be
00000300: 1d2c 1cbe c766 79be 86df e7be 97d1 5cbe
00000310: 9e9c f0be f331 a0be 4daa aabd 4eff ec3c
00000320: a3c8 a0be 8361 283e 9a23 e53e 7333 473e
00000330: 62be 6c3e 294e 263f e565 f13e d257 b23e
00000340: 30b7 1e3e 900c 7e3f 5ffa 183f b530 d83e
00000350: 15e9 b43f 1df6 af3f 2a36 4e3f c7d7 3ebe
00000360: 3277 583e 3ce7 b33e 4fb7 f43d b77f 23bf
00000370: 6755 1d3d 17bb 733e e598 87bf aedb e7be
00000380: 5e84 04be 7c8a 79be 674b 283e 1436 4f3f
00000390: 70a6 6ebe 41bd 00be 4390 8bbe 2b13 fabb
000003a0: dde9 59be b5f1 a4be 9d17 c93e 450b bf3c
000003b0: fe7c 35be cd9d b03e 6e8a 213e 9911 1f3e
000003c0: adc5 06bf ab2c b6be d1f0 74be 77e5 f2be
000003d0: 7990 e7be fdea 3ebf 55c1 f9be 649f 50bf
000003e0: 9989 efbd 24ca ce3e 8365 903e 0480 1f3e
000003f0: b94f 18be 2b2b 553e db01 953e 176a b0be
-0.37817243 -0.70023 -0.8631509 0.30427077 0.68860245 -0.026034694 0.27223173 0.97085464
0.6402062 -0.30115303 -0.27615917 -0.19521618 -0.15841873 -0.3375719 -0.7410111 -0.33389583
-0.17449616 -0.5826643 0.40542004 -0.054987427 -0.2952173 -0.027866876 -0.49244148 -0.1898191
0.07737149 -0.30252045 -0.48625436 0.12719712 -0.15943946 -0.7406793 0.5458406 0.6106129
0.09648919 -0.23737444 0.25264332 1.0047681 -0.49877343 -0.3565484 -0.15849748 -0.16618037
-0.41244024 -0.5908904 0.21305615 -0.40689933 -0.26863247 0.5545865 0.21989994 0.059012827
0.3254288 -0.3654727 -0.5728282 -0.5509877 -0.13044809 -0.3420988 -0.14660363 0.074224554
0.034192465 -0.27838752 -0.15612736 -0.2971729 -0.44269753 -0.24391901 -0.089078166 -0.20973043
0.32580855 0.6600177 -0.6726137 -0.6475884 -0.4021653 -0.06762023 -0.31554356 -0.6157567
-0.44147223 -0.26020783 -0.30160868 0.65262026 0.67421556 0.21508229 0.25404748 -0.402514
-0.18657768 -0.25050795 -0.12760405 -0.15097696 -0.19642457 -0.44120577 -0.47504506 -0.2744463
-0.14932425 -0.58050096 0.14858356 -0.4212474 -1.0164021 -0.27993995 -0.35196954 -0.27897513
-0.02228227 0.16669726 0.06522657 0.1038676 0.064793535 -0.28826076 0.049214862 0.2675833
0.21277097 -0.10083742 0.15183347 0.008688111 -0.60460323 -0.7927904 -0.70459026 -0.6118103
-0.6726116 0.14889976 -0.1251481 0.10033024 0.93475676 -0.5981827 -1.1871063 -0.8609924
-0.36127716 -0.25974318 0.007469289 0.258125 0.29720047 -1.1166904 -0.12471225 -0.45421845
-0.31321386 -0.63032776 -0.47078252 -0.19725151 -0.66300344 -0.2145759 0.39506847 -0.13292564
0.4531378 0.6903121 -0.3968925 -0.37817764 -0.09918463 -0.18203984 -0.179481 -0.5019292
1.1823976 0.24768156 0.09777406 0.4503645 0.11113898 -0.16278006 -0.5443709 -0.5114638
-0.22276829 -0.48888746 -0.2985422 -0.68488294 0.64591575 0.37313318 0.58891666 0.8300459
-0.02485764 0.17360611 0.11332192 0.14909692 -0.11747286 -0.1647942 -0.44818312 -0.0070238924
-0.6667496 -0.53699267 -0.31378978 0.28574604 0.92267567 -0.027277274 0.057847366 -0.20251602
-0.51545674 -0.32850564 0.2028792 0.034014545 -0.05777302 0.38896456 0.72961926 -0.31507373
-0.5425957 0.047544945 -0.40067473 -0.026606502 0.66533154 0.36851177 -0.020474711 -0.20457923
-0.15251203 -0.24355613 -0.45287722 -0.21564327 -0.4699449 -0.31288108 -0.083332635 0.028930333
-0.31403074 0.16443448 0.44753724 0.1945322 0.231195 0.6496301 0.47148052 0.34832627
0.15499568 0.9923792 0.59757036 0.4222466 1.4133631 1.3746983 0.805514 -0.18637
0.2113922 0.35137355 0.11949026 -0.6386675 0.038411524 0.23801838 -1.0593535 -0.4528479
-0.12941119 -0.24369234 0.16435014 0.8094189 -0.23305678 -0.12572195 -0.272585 -0.0076316795
-0.21280618 -0.32215658 0.39275828 0.023320803 -0.17723462 0.34495392 0.15775463 0.15534057
-0.5264538 -0.35580954 -0.23919989 -0.47440693 -0.4522741 -0.74577314 -0.48780313 -0.8149321
-0.116961665 0.40388596 0.28202447 0.15576178 -0.14874162 0.20817249 0.29102978 -0.3445594

block2.conv3.bias f4 [10]
00000000: 2bfa d73e 0930 ddbd 97cf 293e bc99 cf3d
00000010: 7e4f 2dbe 8d6a b1be e555 55be 5792 a2be
00000020: 3e7d bbbe 36f2 8ebe
0.4218305 -0.108001776 0.16583095 0.101367444 -0.16924855 -0.34651604 -0.20833547 -0.31752273
-0.3661899 -0.27919167

block2.bn3.weight f4 [10]
00000000: e810 a53f 9a80 0a40 4a0f 0c40 3729 ec3f
00000010: b032 2740 22df e33f 7a0a 0440 b883 a93f
00000020: 7f8a cb3f 53b1 2940
1.2895784 2.1640992 2.1884332 1.8450078 2.6124687 1.780247 2.0631394 1.3243322
1.5901641 2.651448

block2.bn3.bias f4 [10]
00000000: e8c8 113f ef14 0ebf 377f 7b3e 2078 443e
00000010: 396d 5b3e 9406 ab3e be1c 5bbe e432 ad3e
00000020: ea22 bdbe 66d9 febe
0.56947184 -0.5550069 0.24560247 0.19186449 0.21428384 0.33403456 -0.21397683 0.3382789
-0.369407 -0.49775237

block2.bn3.running_mean f4 [10]
00000000: be52 3740 ca33 6240 97d2 d340 3d18 4d40
00000010: 58a3 b840 3018 4f40 51f6 0a40 1599 5e3f
00000020: bdd2 f93f 44ae bf40
2.8644252 3.534411 6.619457 3.2046044 5.7699394 3.2358513 2.171284 0.86952335
1.9517437 5.9900227

block2.bn3.running_var f4 [10]
00000000: 549a fb41 1332 2e42 923a e042 c99c 6142
00000010: 1f32 f042 4aa9 8942 7c3f 1f42 07b7 7f41
00000020: 218b 0742 632d 4543
31.450356 43.5489 112.114395 56.40311 120.09789 68.83064 39.811996 15.982184
33.885868 197.17729

block3.conv1.weight f4 [10, 10, 3, 3]
00000000: adef a13e 14f3 bf3d 4231 d8bd b0fe 4e3e
00000010: e73e 62be 9247 f7be 86c7 fdbe 422b 25bf
00000020: fc83 b3be 3bfa 92be 4565 f8be 3665 93be
00000030: d558 0ebe a16a c4bc 0958 ae3e cb17 a23e
00000040: 44e3 8f3e 5443 0e3d ef6a 0840 c95a f83e
00000050: 6960 443f e85f 073f 3ed7 00bf 0421 72bf
00000060: 0664 1cbf a45a 07bf 13c8 47bf 5477 0b3f
00000070: 4c60 ad3e baff 483e be58 673f 4863 c83e
00000080: 2d1a 67bf bb81 10bf 5152 28be d7df debe
00000090: 1d58 2a3f 74ba 573e 94e2 c83e 00f5 ecbd
000000a0: bda7 a5be 137b 133e 24bf 1fbf e338 f5be
000000b0: e226 243d cf7b 933f df69 323f f12b 0f3e
000000c0: be8e 3abd 6f6c 51bd 83f4 adbe 4ce7 5fbf
000000d0: d5ae 0bbf fc6e e5be 2f21 88be 2a9a e5be
000000e0: 14c5 2ebf 08a7 50be 7efb 773e a813 06bd
000000f0: c830 2b3e 99ac 973e 026a 6c3e f88d c43d
00000100: c0a8 903d 8c86 fe3d 3935 893e c82f 643d
00000110: 1241 b9be c2f6 cabe bc17 46be a0f7 b0be
00000120: 6bc0 27bf cde7 8bbd c179 c4bd 85ce 723e
00000130: 4226 d2b9 9fa4 073f f896 463e 28eb d33e
00000140: 7087 fbbe 8ccb 343e adb7 013e d3d9 423f
00000150: b29e 79bf 288f a9be 9afd 2ebf 29da afbf
00000160: d798 61bf 8bbd 23bf f8e3 983e 5904 403e
00000170: 4083 01be 89f3 f43e 15b6 5d3e 3894 3ebd
00000180: 6079 d4be bd16 edbc ff95 a33e a1a8 debd
00000190: ad50 e4bd c15d a7be bd07 82be 6238 bdbd
000001a0: 2a23 4ebf 61ed ed3e 6fa6 913f 0c94 3a3f
000001b0: 8292 5abd 3713 9ebe 7048 d8be 2fdb 1bbe
000001c0: d84e 12be 0007 a5be 3fbc a1bc 8b63 9ebe
000001d0: 829d 87be 8ec4 3e3f 72a5 5b3c 8697 e1be
000001e0: 3b83 3d3d c615 c73e 58d3 b5bd 0baa f0bc
000001f0: 1149 143d 262e 19be daca 6b3e 8b2f 91bf
00000200: 9985 82bf 3678 ab3e c9c7 1abd a600 74be
00000210: ded0 5b3e dc39 9abe 5f39 5fbf 8e35 e6bd
00000220: d6c2 76ba e035 9abe 9f36 b23d 5ecc 593e
00000230: cb41 453e e4bd 14bc 6df1 753c b310 9cbe
00000240: 79c1 fe3e d0a8 433e 8b64 85be 8330 1f3f
00000250: 0f36 8ebd f39c 86bf 4d0b a53e 68d8 ff3e
00000260: 95c7 03be 8a0a 0a3e 99ee 573b d5b5 edbe
00000270: 6070 a93e a556 9b3d 49e1 19bf ff14 88be
00000280: 299f fabd 643d 1ebe fbf1 56be db50 6dbe
00000290: f3c3 d0be 2e3e 9c3e 37bb a23d 0350 dbbe
000002a0: 38b9 0f3f de4d 4f3e 4804 b93d 1421 39be
000002b0: 1d88 8ebf 934d 1fbf 0f8d bb3e da7c 07bf
000002c0: 1f2f 17bf 105d 523f 9703 bcbe c98a 68bf
000002d0: 012a 92be 04d1 68be aa56 68be 8cf6 863c
000002e0: 07aa d1bd 5866 31bf e576 f1bd 159d d4bd
000002f0: ffda b33e d59e 11bf 3290 bdbd 9a4b 063e
00000300: acee 243e 115b 533f c37e 173f 9fb0 10be
00000310: 076f 28be f4f8 1ebf 768d 573d 7333 363f
00000320: 59d8 393f 7ec3 b33d 6c8c de3e 2abc fbbc
00000330: 68cd cfbe 5610 3b3e eddb e33e 6888 eebe
00000340: af43 f4be af36 3fbf 5f63 24bf aa82 323d
00000350: c073 2b3f 0347 39bd 2187 a03d 29cb 6d3f
00000360: f8c7 063d 29e4 923f c480 d03f e487 193f
00000370: 9c55 a03f 1a71 ce3e 1a91 74be 512b 48bf
00000380: 4198 b0bf bf76 bf3f 157c 9e3f e20e 7e3f
00000390: 41c6 9a3c c7be 1b3f f22a b43f 3215 e7be
000003a0: 1da8 81be 5d03 60be bada f0bf 84b6 c3bf
000003b0: 2997 5bbf 7ff1 5bbd 17d9 333e 4000 69bf
000003c0: 7799 fa3e 52ec 1b3f 3683 e23e 845e 10be
000003d0: 97f7 bb3e 3832 9a3e 57b2 dcbe 930f 8a3d
000003e0: 3916 f4be 1600 ccbe 3305 babd 70b6 073e
000003f0: 0d43 c63d 4924 c03e f070 b3be bce0 16bf
0.3162817 0.09372535 -0.1055627 0.20214343 -0.22094308 -0.4829679 -0.49566287 -0.6451913
-0.35061634 -0.28706536 -0.48514763 -0.28788155 -0.13901074 -0.023976626 0.3405154 0.31658778
0.28103077 0.034732178 2.1315267 0.48506764 0.7670961 0.52880716 -0.50328434 -0.9458163
-0.61090124 -0.5287268 -0.78039664 0.54478955 0.3386253 0.19628802 0.90369785 0.39138246
-0.90274316 -0.56447953 -0.16437651 -0.4353015 0.665407 0.2106722 0.39235365 -0.115701675
-0.32354537 0.14402418 -0.6240103 -0.47894964 0.040076144 1.1522158 0.69692796 0.13981606
-0.045546286 -0.0511288 -0.3397561 -0.87462306 -0.5456365 -0.44811237 -0.26587817 -0.4484418
-0.6826947 -0.20376217 0.2421703 -0.03273359 0.16717827 0.2962387 0.23087314 0.09597391
0.070634365 0.124280065 0.26798418 0.05570963 -0.36182457 -0.39641386 -0.19344991 -0.34563923
-0.6552798 -0.06831322 -0.09593535 0.23711593 -0.00040082826 0.52985567 0.19393528 0.41390347
-0.49126768 0.17655772 0.12667723 0.76113623 -0.97507775 -0.33117032 -0.68355715 -1.3738452
-0.8812384 -0.63961095 0.29861426 0.18751658 -0.12647724 0.47842053 0.2165149 -0.04652807
-0.41498852 -0.028941507 0.31950375 -0.10872007 -0.111482 -0.32688716 -0.2539653 -0.0923927
-0.80522406 0.46470168 1.1378917 0.7288215 -0.053362377 -0.30874035 -0.42242765 -0.1522033
-0.14287889 -0.32231903 -0.019743083 -0.3093532 -0.26487356 0.7451867 0.013406144 -0.44060916
0.04626773 0.388838 -0.08878201 -0.029377958 0.036202494 -0.1495901 0.230266 -1.1342634
-1.0197021 0.3349015 -0.037788186 -0.23828372 0.21466395 -0.30122268 -0.87196916 -0.112406835
-0.0009413188 -0.30119228 0.087018244 0.21269366 0.1926338 -0.009078477 0.015011174 -0.3048149
0.49756983 0.19107366 -0.2605327 0.621834 -0.069439046 -1.0516647 0.32235184 0.49969792
-0.12869103 0.13480583 0.0032948612 -0.4642779 0.33093548 0.075848855 -0.6010938 -0.2657852
-0.12237389 -0.15453106 -0.20990746 -0.23175375 -0.40774497 0.3051619 0.07945865 -0.42834482
0.56141996 0.20244548 0.0903402 -0.18079025 -1.1135288 -0.62227744 0.36631057 -0.52924883
-0.59056276 0.8217325 -0.3672149 -0.9083677 -0.2854767 -0.22735983 -0.2268931 0.016474985
-0.10237508 -0.6929679 -0.117902555 -0.103815235 0.35128018 -0.56882983 -0.09256019 0.13114777
0.16106671 0.8256083 0.591778 -0.14129876 -0.16448604 -0.6209862 0.052625142 0.71172255
0.72595745 0.087775216 0.43466508 -0.030729372 -0.405864 0.1826795 0.44503728 -0.46588445
-0.47707888 -0.74692816 -0.6421413 0.043581642 0.66973495 -0.045233738 0.07838274 0.9288812
0.03290555 1.1475879 1.6289296 0.5997298 1.2526126 0.40320665 -0.23883477 -0.78191096
-1.3796464 1.4958113 1.2381617 0.9924146 0.018893363 0.6083798 1.4075606 -0.45133358
-0.25323573 -0.21876283 -1.881675 -1.5290074 -0.8577753 -0.053697105 0.17563282 -0.91016006
0.4894521 0.6090747 0.4424073 -0.14098555 0.36712334 0.3011644 -0.43104813 0.06741252
-0.47673205 -0.39843816 -0.09083023 0.13253188 0.09680758 0.37527683 -0.35047102 -0.5893667

block3.conv1.bias f4 [10]
00000000: 3a9f a1be d84f 63be 90ad 493e 9853 dbbc
00000010: f774 c83d 4a47 5c3e 1f3e 973e fb8f 463e
00000020: 768c 433d 8733 583d
-0.31566793 -0.22198427 0.19695115 -0.026773259 0.09787934 0.2151157 0.29539582 0.19390862
0.047741376 0.052783515

block3.bn1.weight f4 [10]
00000000: 4295 f03f 0893 0840 7a37 3340 5dbd e83f
00000010: d3fd ed3f bc32 fd3f f270 2740 9fdb 0b40
00000020: 2e57 1640 1ff8 0140
1.879555 2.133974 2.800261 1.8182789 1.8593086 1.9781108 2.6162686 2.1852796
2.349071 2.030769

block3.bn1.bias f4 [10]
00000000: aac8 c03d a5db 343f 40f0 993f f012 00bf
00000010: 0302 293f 185c 8ebe 1d8e 0cba 9a31 763e
00000020: b10f bb3e 3eae f7be
0.09413274 0.7064765 1.2026443 -0.50028896 0.66018695 -0.27804637 -0.00053617527 0.24042359
0.3653541 -0.48375124

block3.bn1.running_mean f4 [10]
00000000: 52b9 b340 6b27 9640 8122 3b41 ae3c 0841
00000010: d5be 0041 3f51 e840 7559 fe40 0d83 fd40
00000020: 7c4a 6441 ab17 f940
5.616372 4.692312 11.695924 8.514814 8.04659 7.2599177 7.94842 7.9222474
14.268185 7.784139

block3.bn1.running_var f4 [10]
00000000: 154e ed42 3f34 ab42 a9ae 9643 f9eb 2e43
00000010: 269e 0b43 d894 1043 ad0e 2243 eb9a e442
00000020: fdfb de43 7b9f 1343
118.652504 85.60204 301.36453 174.92177 139.61777 144.58142 162.05733 114.302574
445.96866 147.62297

block3.conv2.weight f4 [10, 10, 3, 3]
00000000: f03a 463e 4a71 9f3e 1f99 e23b c878 ecbe
00000010: d84a e3be 3268 c3bd 2e69 c1be 52cd 8abe
00000020: 0ff2 1bbd b80e 53bf e933 e6be 251a 0f3f
00000030: d6f0 58bf 57eb 59bf 52e8 05be 9212 4abf
00000040: a359 31bf 927b 643b 6f10 a63f 4a16 783f
00000050: d20a 83bf 9ed3 943f 626d e33e e8c6 acbf
00000060: 6b09 4b3f 470a c53c a2bd 83bf bb7a 38bf
00000070: d594 81be b8aa c2bd 24f0 6dbf 52bf 15be
00000080: f449 803e 0d77 41bf 9b77 c0bb 4125 913e
00000090: b620 713f 4d47 003f 5eb0 8b3d ebe5 9d3b
000000a0: 0078 843e 5087 2b3e 258c 63bd 397c 8a3d
000000b0: 6015 b7bd 67a7 d3bc 5959 e8be 4edb aabe
000000c0: 2508 03be 7311 15bf 922b 5fbf e4bb dabd
000000d0: e8bb 48bf 53f8 a0bf 11fb ec3e ba45 873d
000000e0: c71b f33e 81eb 40be b601 bdbe 3674 d93e
000000f0: 41c3 3f3f a1f7 1a3e 9a27 c0bd f6c5 7b3e
00000100: c16a 32be 3a5d b1be 2e58 913e 3a05 a03c
00000110: 7248 2cbf e557 823e 332f 2fbb 50c5 06bf
00000120: 7c54 13bd b833 f9be 9b8c f6be 3780 23be
00000130: 508a 83bd 39ee cbbd 13e9 78be 8268 893e
00000140: df60 103f f659 853f 1ec0 c13e 25e5 143f
00000150: 3978 033f 0cbe e93e 2ab6 e53e 4e41 85be
00000160: 8444 8f3e 8be3 8b3e 7f8b 5b3f 54b2 253f
00000170: 2833 afbd 0afb bd3f 5c73 563f a77e f33e
00000180: 1e79 123f 9b03 5cbe 9a13 24bf f44a a0be
00000190: 4cc3 f6bd ccb4 8f3c 65c3 c3be 3bf4 4ebf
000001a0: 3223 26bf 8113 a5be 02c2 11bf d4d8 bcbe
000001b0: efe7 cabe 7d4f 37bf d050 23bf afcf 1cbe
000001c0: 3f15 efbe 7ddc 30bf ad7e 443f fc5a b83e
000001d0: 7ba2 9c3e d27c 203f f7ea 413e ea80 71be
000001e0: 6d9e b83e 5652 d9bd 5b66 68bf 9410 b13e
000001f0: 4c2c ee3e ffd2 f33d 6032 c8be e98c f7bd
00000200: b3d7 94be 9c74 cabe 9cd0 2ebe 1987 67be
00000210: 6d30 74be 8dfa 80be 8517 7cbe 5a46 9b3f
00000220: 3fcb 283f 9b63 48bd 65db 50be 3ac3 f5be
00000230: fb11 0fbe 6849 04bf 6b7c afbe d298 bdbe
00000240: e3d6 e0be 2bf9 a3bd 847f adbe 507d 75bf
00000250: 0a08 6cbf f828 80bf eb2c 56be cd17 24be
00000260: 5152 cfbe 28c5 8c3f 6c7d 523f aa56 023f
00000270: 86b7 e2be 338e d5be 7891 08bf c4f6 38bf
00000280: 2a48 83be f591 07bf 8c18 3f3f ea26 9b3e
00000290: f8d7 e3bb 864a 0fbe ce3a a2be 43b4 67bf
000002a0: 1916 c5bc c285 92bd a13b 20bf 9b04 b93d
000002b0: b2bc e5bb 105f 7a3e 376c ee3e 6fe9 e13e
000002c0: 42a8 4a3e 2b20 6e3f d10f f53d 0bbe 9bbe
000002d0: 3999 b5bf 014c d9be 0e9c 323c 6c03 e83e
000002e0: 7cdb 933e 5492 a53e 4f6f ab3e a5fe 83be
000002f0: 66bb 5dbf e67d ca3d 5d9b ebbd ad37 c5be
00000300: 19b3 62be 2d70 10bf 3e8d 6abf 1a33 553d
00000310: 53c2 eebd 45cc 7abe 9665 1fbf 918b 8fbe
00000320: 974a a13f e6fb fdbc e41a 83be 3894 b83e
00000330: af9f 92be d433 0dbf 642c 55be 82c6 ae3f
00000340: 2701 8d3f 5f8a 873f 2e8c 22bf 4314 c3be
00000350: 02dc 20bf bec5 3a3e c115 833e ce6d d03d
00000360: 10fd 61bf d361 30bf f8f4 d7be 575b cebe
00000370: 5bd8 23bf 9477 b5be ea04 febe 8b2c c0be
00000380: dc43 1abe fc98 43be f167 913e be28 d53e
00000390: e9e9 f23e d723 fbbd e6ae c33e 40b4 513e
000003a0: 1b40 e43e d3c7 bd3f 244f 26be b005 5b3e
000003b0: 9eda abbd 448e 1ebf 0969 0abe 221c 0fbe
000003c0: 910d 893e 4333 8e3e a21b 4dbc e93c 08be
000003d0: 330b 05bf d398 20bf cbc3 58bf 6d24 eb3b
000003e0: 8140 fb3d 7931 b23e 92a7 ce3e 2452 2c3e
000003f0: 7d0b 743e 0bbf ae3e 7a8f ca3e 7c16 dfbe
0.1935842 0.3114112 0.006915226 -0.461859 -0.4439304 -0.09541358 -0.37775558 -0.27109772
-0.038072642 -0.82444334 -0.4496148 0.5589927 -0.84742486 -0.85124725 -0.13076904 -0.78934586
-0.692774 0.0034863693 1.2973765 0.9690901 -1.0237677 1.162708 0.4441939 -1.3498201
0.79311246 0.024052752 -1.0292246 -0.7206227 -0.25308862 -0.09505218 -0.9294455 -0.14623764
0.25056422 -0.7557228 -0.005873633 0.28348735 0.9419054 0.50108796 0.06820749 0.004818668
0.25872803 0.16750836 -0.055553574 0.06761975 -0.08939624 -0.02583666 -0.45380667 -0.3337044
-0.12796076 -0.5822975 -0.8717586 -0.106803685 -0.7841172 -1.2575783 0.46285298 0.06605096
0.4748213 -0.18839838 -0.36915368 0.42471474 0.7490731 0.15133525 -0.093825534 0.24587235
-0.17423536 -0.3464144 0.28387588 0.019533742 -0.6729804 0.25457683 -0.0026731014 -0.52644825
-0.035969242 -0.4867227 -0.48154148 -0.15966879 -0.064228654 -0.09957547 -0.24307661 0.26837546
0.56397814 1.0418079 0.37841886 0.58162147 0.5135532 0.45652807 0.44865543 -0.26026386
0.2798196 0.2732204 0.8575973 0.6472523 -0.08554679 1.4842236 0.83769774 0.47557566
0.5721606 -0.2148575 -0.6409241 -0.31307185 -0.12048969 0.017542265 -0.38235012 -0.80841416
-0.64897454 -0.32241443 -0.5693666 -0.36884177 -0.39630076 -0.71605664 -0.63795185 -0.153136
-0.46695897 -0.6908644 0.7675579 0.36006916 0.30592713 0.6269046 0.18937288 -0.23584333
0.3605837 -0.106114075 -0.9078118 0.3458296 0.4651817 0.11905479 -0.39100933 -0.12087423
-0.29070815 -0.3954209 -0.17071766 -0.2261013 -0.23846598 -0.25191155 -0.24618347 1.2130845
0.6593513 -0.048923116 -0.20396192 -0.4800051 -0.13971703 -0.5167451 -0.3427461 -0.37030655
-0.43913946 -0.080065094 -0.3388635 -0.95894337 -0.92199767 -1.0012503 -0.20915572 -0.16024704
-0.4049249 1.0997667 0.8222263 0.5091349 -0.44280642 -0.41710052 -0.5334697 -0.72251534
-0.25640994 -0.5295709 0.7464683 0.30303127 -0.0069532357 -0.13993272 -0.3168549 -0.9050943
-0.024058389 -0.071544185 -0.62590986 0.090340815 -0.0070110196 0.24450326 0.46566936 0.44123408
0.19790748 0.93017834 0.11965907 -0.3041843 -1.4187385 -0.424408 0.010901464 0.4531511
0.2887839 0.32338202 0.3348336 -0.25780216 -0.8661407 0.098872945 -0.115042426 -0.3851904
-0.22138633 -0.56421167 -0.9162177 0.052050687 -0.11658158 -0.24491985 -0.6226438 -0.28036168
1.2600888 -0.031003904 -0.25606453 0.36050582 -0.28637454 -0.5515721 -0.20817715 1.365433
1.1015977 1.0589103 -0.6349515 -0.38101396 -0.62835705 0.18239495 0.25602534 0.101771936
-0.8827677 -0.6889927 -0.42179084 -0.40304062 -0.6400201 -0.35442793 -0.49613124 -0.37533984
-0.15064949 -0.19101328 0.28399613 0.41632646 0.47444084 -0.12262695 0.38219374 0.20478916
0.4458016 1.4826607 -0.16241127 0.21388888 -0.08391307 -0.6193583 -0.1351663 -0.13975576
0.26768163 0.27773485 -0.012518795 -0.13304485 -0.51970214 -0.6273319 -0.84673756 0.007175973
0.122681625 0.3480337 0.4036222 0.16828209 0.23832507 0.3413013 0.3956259 -0.43571842

block3.conv2.bias f4 [10]
00000000: 862c 05bd 6a7d a9bd a4a8 b5be d1fd 1b3d
00000010: 5403 acbe 8ba6 a13e bfd4 1e3f a239 e2be
00000020: a0d5 e5be fa14 263e
-0.032513164 -0.08275874 -0.35480225 0.038083855 -0.3359629 0.31572375 0.62043375 -0.44184595
-0.44889545 0.1621894

block3.bn2.weight f4 [10]
00000000: 5ca9 ef3f fc6a 0e40 6a65 f93f 8430 0240
00000010: 30d9 fd3f ee75 f83f 80ba f23f 7322 0140
00000020: 743e 0140 9fd1 0640
1.8723559 2.2252798 1.9484074 2.0342112 1.9831905 1.9410989 1.8963165 2.0177276
2.0194368 2.1065443

block3.bn2.bias f4 [10]
00000000: eadb 963d 9943 0fbe 6c2c c63d 840e 60bd
00000010: 9489 9bbd 0088 1fbd e312 b13d 896e 6f3c
00000020: 66e3 68bc f415 7e3d
0.07366164 -0.1399063 0.096764416 -0.054701343 -0.075946 -0.03894806 0.086461805 0.014613756
-0.014214372 0.062032655

block3.bn2.running_mean f4 [10]
00000000: ecb4 9b40 08fa 4f40 bbd5 2140 b55a 9b40
00000010: 4509 8940 e82e a640 a496 6d40 511d 4340
00000020: de6f 9440 5cb1 0641
4.865835 3.2496357 2.52867 4.8548226 4.2823815 5.193226 3.7123194 3.0486643
4.6386557 8.418301

block3.bn2.running_var f4 [10]
00000000: 89c5 8f42 3ddc 6142 9730 0842 05a1 7f42
00000010: f972 6c42 3c63 9742 3f09 2842 f4c4 4542
00000020: 004f bf42 a18c cf42
71.88581 56.465076 34.04745 63.907246 59.112278 75.69382 42.00903 49.442337
95.6543 103.774666
