mnist/weight/model_weights_99.42.pth (torch, 33922 bytes, 38 tensors)

block1.conv1.weight f4 [4, 1, 3, 3]
0	0x3eb6a605	0.35673538
1	0xbe0767f7	-0.13223253
2	0xbd100bd6	-0.035167538
3	0xbed99b17	-0.42501137
4	0xbdf17922	-0.117906824
5	0x3f045761	0.5169583
6	0xbf098e7e	-0.5373305
7	0x3db6a4b1	0.08918131
8	0x3eed637b	0.4636496
9	0x3e916c03	0.2840272
10	0x3f1bfa31	0.60928637
11	0x3ec0f389	0.37685803
12	0xbe90c458	-0.28274798
13	0x3e56ee53	0.20989351
14	0x3da8fe8d	0.08251677
15	0xbeeb24b9	-0.45926455
16	0xbef56a7d	-0.47932807
17	0x3d0c1854	0.03420289
18	0xbf2880e8	-0.65821695
19	0x3dc4c834	0.09608498
20	0xbe93697f	-0.28791425
21	0x3e2d9056	0.16949591
22	0x3e4345d2	0.19069603
23	0x3ee720ed	0.45142308
24	0x3eebb755	0.4603831
25	0x3f2379d0	0.63857746
26	0xbd11d9af	-0.03560799
27	0xbeeac9e6	-0.4585716
28	0xbefa4d1f	-0.48886964
29	0xbef66975	-0.48127332
30	0xbd91ee9b	-0.071255885
31	0x3d739db1	0.059476558
32	0xbe446268	-0.19178164
33	0x3ed8c556	0.42338055
34	0x3e2df598	0.16988218
35	0x3e994142	0.299326

block1.conv1.bias f4 [4]
0	0x3d140a4f	0.036142644
1	0x3c9ccfe8	0.019142106
2	0x3e924130	0.2856536
3	0x3ec7de9e	0.3903703

block1.bn1.weight f4 [4]
0	0x3f7e8f27	0.99437183
1	0x3f8c6beb	1.0970434
2	0x3f98435f	1.189556
3	0x3f716984	0.9430163

block1.bn1.bias f4 [4]
0	0xbde71f47	-0.112852626
1	0x3ebf031e	0.37307066
2	0xbf0d236d	-0.5513218
3	0xbdea6492	-0.114449635

block1.bn1.running_mean f4 [4]
0	0x3e5ce068	0.21569979
1	0x3e934d00	0.28769684
2	0x3f04b1b1	0.51833636
3	0x3f21ae99	0.6315704

block1.bn1.running_var f4 [4]
0	0x3e957ffa	0.291992
1	0x3f04e8ed	0.51917917
2	0x3fa65b32	1.2996581
3	0x3e7ac741	0.24490072

block1.conv2.weight f4 [4, 4, 3, 3]
0	0xbecce490	-0.4001813
1	0xbe36fe3c	-0.1787042
2	0x3e91de61	0.28489974
3	0x3e5b417d	0.214117
4	0xbcaa8525	-0.020815441
5	0x3efdf366	0.4959976
6	0x3ed4cebc	0.41563976
7	0x3dcf34d1	0.10117496
8	0x3ec0b22f	0.37635943
9	0x3ebeba3b	0.37251458
10	0xbd8cc4a5	-0.068734445
11	0x3f002cc9	0.50068337
12	0x3e061033	0.13092117
13	0x3e3bc967	0.18338548
14	0xbdb8df04	-0.09026912
15	0xbd85e938	-0.065386236
16	0xbdd4ca82	-0.10390188
17	0xbf00350c	-0.50080943
18	0xbe882ff7	-0.26599094
19	0xbe61d24d	-0.2205288
20	0xbdd889f4	-0.105731875
21	0xbe9e490c	-0.30915105
22	0xbee894d2	-0.4542604
23	0xbf19af31	-0.60032946
24	0xbe8b9c9c	-0.2726792
25	0x3d24975d	0.040183414
26	0x3ec283e0	0.37991238
27	0x3bb0fc54	0.0054011736
28	0xbefb5e6d	-0.4909548
29	0xbdac37be	-0.084090695
30	0xbf10849d	-0.5645235
31	0xbf101c15	-0.5629285
32	0xbe4c1093	-0.19928198
33	0xbf1ea615	-0.6197217
34	0xbea014f0	-0.31265974
35	0xbe4ad030	-0.1980598
36	0xbe0e12cd	-0.1387436
37	0x3dad3556	0.08457439
38	0x3d50bfb2	0.050964065
39	0xbf413845	-0.75476485
40	0xbe445c18	-0.19175756
41	0xbe299457	-0.16560493
42	0xbf0d6fb3	-0.55248564
43	0x3d8dbd3e	0.06920861
44	0xbe56fd86	-0.20995149
45	0x3e2e997c	0.17050737
46	0x3f3f896f	0.7481908
47	0x3ec7c0d8	0.39014316
48	0xbe5ac0ca	-0.21362606
49	0x3e8356b4	0.25652087
50	0x3e358c02	0.1772919
51	0xbf02de64	-0.5112059
52	0xbf40d40d	-0.75323564
53	0xbf5e2f0a	-0.86790526
54	0xbe307492	-0.17231968
55	0xbe8a1cde	-0.2697515
56	0xbe1a12b6	-0.150462
57	0xbe1e2e89	-0.15447439
58	0x3d866d6c	0.06563839
59	0xbe265423	-0.16243033
60	0x3e1c2bf3	0.1525114
61	0x3ee3d71d	0.44500056
62	0x3f0e05fd	0.5547789
63	0x3e98995c	0.29804504
64	0xbebb2b88	-0.3655665
65	0xbe5eb28f	-0.21747802
66	0x3ecb3b5d	0.39693728
67	0xbd3fddff	-0.04684257
68	0xbdb600b7	-0.08886855
69	0x3d64fa75	0.055902917
70	0x3e47b0c3	0.19501023
71	0x3db1391a	0.086534694
72	0x3e7307f6	0.23733506
73	0x3e08d15d	0.13361116
74	0xbf5f2d8e	-0.87178886
75	0x3ce9b7d3	0.028530037
76	0x3eacefdd	0.3377675
77	0x3db3cdb8	0.08779472
78	0x3e3d71eb	0.18500488
79	0x3f13bb93	0.5770809
80	0x3d984630	0.07435262
81	0x3d8de398	0.06928176
82	0xbe546265	-0.2074066
83	0xbf02d6dd	-0.51109105
84	0xbecfe9fa	-0.40608197
85	0xbe826eb1	-0.25475076
86	0x3e14f49c	0.14546436
87	0xbe070ae6	-0.13187751
88	0x3e45b009	0.19305433
89	0xbcca0184	-0.024658926
90	0xbea2e0cf	-0.3181214
91	0x3e1512ea	0.14557996
92	0xbe7b7ce1	-0.24559356
93	0x3f248cea	0.6427752
94	0xbe0a7e88	-0.1352483
95	0xbf1c1948	-0.60976076
96	0x3ed0eea0	0.40807056
97	0x3e5d61da	0.21619359
98	0x3eb25538	0.34830642
99	0x3e73e795	0.2381881
100	0xbee3b319	-0.44472578
101	0xbec7bb4e	-0.3901009
102	0x3e7d8912	0.2475932
103	0xbf6e3a0f	-0.9305734
104	0xbf18fe48	-0.59763
105	0xbeb51eca	-0.35375053
106	0xbf8457ae	-1.0339258
107	0xbf40f70a	-0.7537695
108	0xbe17ecef	-0.14836477
109	0xbe937379	-0.28799036
110	0xbec88e2b	-0.39170966
111	0xbed3a96c	-0.41340196
112	0xbe9656a9	-0.2936299
113	0x3e0faec7	0.14031516
114	0xbefdefc8	-0.49597
115	0x3de27170	0.11056793
116	0x3ecac612	0.3960424
117	0x3e8285c2	0.25492674
118	0x3e7c4453	0.24635439
119	0xbf246b94	-0.6422665
120	0x3e99ea6b	0.3006166
121	0x3d4639cc	0.048394963
122	0xbeeb2fe4	-0.45934975
123	0x3e8315ea	0.25602657
124	0xbe1d6cbe	-0.15373513
125	0xbf051597	-0.5198607
126	0x3e8715aa	0.26383716
127	0xbeedc8da	-0.464423
128	0xbf3f12b2	-0.746379
129	0x3e701f69	0.23449482
130	0xbe206794	-0.15664512
131	0xbf028b7b	-0.5099408
132	0x3e640b43	0.22269921
133	0x3cacbc99	0.021086024
134	0xbea4f6aa	-0.3221944
135	0x3e3b207e	0.18274114
136	0x3d93fc29	0.0722583
137	0xbd82f3e9	-0.063941784
138	0x3db2b446	0.08725791
139	0x3e54a5d3	0.20766382
140	0xbdf252e9	-0.1183222
141	0x3e29342d	0.1652381
142	0xbe9ba093	-0.30395946
143	0xbd9840fd	-0.074342705

block1.conv2.bias f4 [4]
0	0x3f15b090	0.5847254
1	0x3f3ccc51	0.7374926
2	0x3eb03dcc	0.34422147
3	0x3eae8aa6	0.34090155

block1.bn2.weight f4 [4]
0	0x3f9267ad	1.1437889
1	0x3f7274cf	0.94709486
2	0x3f8c0baa	1.094106
3	0x3f891201	1.0708619

block1.bn2.bias f4 [4]
0	0x3c9ebdeb	0.01937767
1	0x3da9d2dd	0.08292172
2	0x3e1bd5ba	0.15218249
3	0xbd7cae14	-0.06168945

block1.bn2.running_mean f4 [4]
0	0x401c53ba	2.4426103
1	0x3fc62054	1.5478616
2	0x3f4caacf	0.79948133
3	0x3ff7e82d	1.936773

block1.bn2.running_var f4 [4]
0	0x4090ad8d	4.5211854
1	0x402a36af	2.6595876
2	0x406d041c	3.7033758
3	0x3fbe77ac	1.4880271

block2.conv1.weight f4 [8, 4, 3, 3]
0	0x3e12d7d3	0.14340143
1	0xbeade24e	-0.3396172
2	0xbeb596e3	-0.3546668
3	0x3ef115d0	0.47086954
4	0xbe4cb349	-0.19990267
5	0x3f17bdce	0.59273994
6	0x3ea9c651	0.33159116
7	0x3dc77e7c	0.09740922
8	0xbd274408	-0.040836364
9	0xbea29d69	-0.3176072
10	0x3e1347f5	0.14382918
11	0xbe18b25e	-0.14911792
12	0x3e2eed77	0.17082773
13	0xbdc2b6c9	-0.0950752
14	0x3df75268	0.120762646
15	0x3ea95460	0.33072186
16	0x3dea41cb	0.1143833
17	0xbcec9ea7	-0.028884245
18	0x3f183ba3	0.59466
19	0xbe446bf1	-0.19181801
20	0x3eaef6a8	0.3417256
21	0xbde01736	-0.10941927
22	0x3e5b5f42	0.21423057
23	0x3c282a12	0.010263937
24	0xbf182ca0	-0.5944309
25	0xbe5f705b	-0.21820204
26	0x3dacf746	0.08445601
27	0xbe7fe512	-0.24989727
28	0x3e4d905f	0.20074604
29	0xbe62e061	-0.22155906
30	0xbf451ad8	-0.76994085
31	0xbf2d63c5	-0.6773036
32	0xbe68784c	-0.2270214
33	0x3e52bd5c	0.20580047
34	0xbd71e166	-0.059052847
35	0xbe0b9af7	-0.13633333
36	0x3e9c823f	0.3056812
37	0x3e0d1dcb	0.13780896
38	0x3e0dec02	0.13859561
39	0x3e704dd9	0.23467197
40	0xbe560434	-0.20900041
41	0x3f00dbaf	0.5033521
42	0xbde7f82b	-0.11326631
43	0xbd5f0ff2	-0.054458566
44	0x3ea8fda1	0.33006003
45	0x3d21d89e	0.039513223
46	0x3dc6ed4b	0.09713229
47	0xbd848cb5	-0.0647215
48	0xbe9b22f9	-0.3030012
49	0xbe1d6301	-0.15369798
50	0xbe159c0d	-0.1461031
51	0xbf50d261	-0.8157101
52	0xbf2a0e8b	-0.6642844
53	0xbd882324	-0.066473275
54	0x3e65f25c	0.22455734
55	0xbe8e8dd4	-0.2784258
56	0x3e9bce6f	0.30430934
57	0x3e107d23	0.14110236
58	0xbca399a9	-0.019970732
59	0x3e34c9a5	0.17655046
60	0x3ed82f2f	0.42223498
61	0xbdf9647b	-0.12177368
62	0xbe17330b	-0.14765565
63	0xbf1297cd	-0.5726288
64	0xbf04af30	-0.51829815
65	0xbf0fd629	-0.5618616
66	0x3e8510fa	0.25989515
67	0x3e915f49	0.2839301
68	0xbe3bd6c8	-0.18343651
69	0x3ecff19b	0.40614018
70	0x3eed30e0	0.4632635
71	0x3e61221c	0.21985668
72	0xb9c0072c	-0.00036626437
73	0xbf46d73f	-0.7767219
74	0xbf1931c9	-0.5984159
75	0xbc5c1c96	-0.01343455
76	0xbed5187e	-0.4162025
77	0xbd8afb61	-0.06786228
78	0x3e6a2d94	0.22868949
79	0xbe1b4f29	-0.15166916
80	0x3e891c07	0.26779196
81	0xbf11c51a	-0.5694138
82	0xbf1af0af	-0.60523504
83	0x3e2248ff	0.15848158
84	0xbf5257dc	-0.8216531
85	0xbf0ebe69	-0.5575929
86	0xbebc0db6	-0.3672921
87	0xbdf630ab	-0.120210014
88	0xbda2f396	-0.079566166
89	0x3b4314aa	0.0029766955
90	0x3db5a792	0.08869852
91	0x3eb08946	0.3447973
92	0xbd56bd03	-0.05242635
93	0x3d9443be	0.07239483
94	0x3df0e68f	0.117627256
95	0x3d98a852	0.074539796
96	0x3d8fb8d7	0.07017677
97	0xbb1b4ccd	-0.00236969
98	0xbec21d46	-0.3791296
99	0xbef890eb	-0.48548064
100	0xbceca5ca	-0.028887648
101	0x3e3670e0	0.17816496
102	0xbed100c4	-0.40820897
103	0xbdd50cc5	-0.10402826
104	0x3e1f6be2	0.15568498
105	0xbec59f50	-0.38598108
106	0x3de97a64	0.11400297
107	0x3ed4564d	0.41472092
108	0xbc8128cf	-0.01576653
109	0x3ea9fa64	0.33198845
110	0x3f325b8d	0.69670945
111	0x3e96750b	0.29386172
112	0xbd978c83	-0.07399847
113	0xbe14b6f0	-0.1452291
114	0x3e0a7fa5	0.13525255
115	0xbe981cf3	-0.29709587
116	0x3e82e986	0.2556879
117	0xbe40fefb	-0.18847267
118	0xbdf974b8	-0.121804655
119	0xbe8218a1	-0.25409415
120	0xbe0a546d	-0.13508768
121	0x3deb168b	0.11478909
122	0xbe305a77	-0.1722201
123	0x3e62964b	0.22127645
124	0xbb234b59	-0.0024916737
125	0x3ebb3500	0.36563873
126	0x3f580203	0.8437807
127	0x3e8b31e2	0.27186495
128	0x3f273abd	0.65324
129	0x3e9a62ea	0.3015359
130	0xbcfbe3f1	-0.03074834
131	0x3f014d5e	0.5050868
132	0xbdcddf59	-0.10052366
133	0x3e0676f9	0.13131322
134	0x3d7dcfd4	0.06196578
135	0xbd9d3ca6	-0.076775834
136	0xbe69b230	-0.2282188
137	0xbefadfd4	-0.48998892
138	0xbe21de3e	-0.15807435
139	0xbee0b8a3	-0.43890867
140	0xbf25961b	-0.6468217
141	0xbd8db1d1	-0.069186814
142	0xbf28f331	-0.6599608
143	0xbea63bdb	-0.3246754
144	0xbe8b228d	-0.27174798
145	0x3da650e5	0.08120898
146	0xbe12cbda	-0.14335576
147	0xbe4d50f1	-0.20050408
148	0xbeb0a7e3	-0.34503087
149	0xbd3dc9a6	-0.046334885
150	0x3db3f84b	0.087875925
151	0x3e1f9de7	0.15587579
152	0xbea1fd96	-0.31638783
153	0x3f4c38d2	0.797742
154	0x3eead347	0.45864317
155	0xbe3ae58d	-0.18251629
156	0x3f1f8b10	0.6232157
157	0x3bcfa50e	0.0063368147
158	0xbf017414	-0.50567746
159	0x3ec45831	0.38348535
160	0xbd55b6e7	-0.052176382
161	0xbe8c4b55	-0.27401224
162	0xbdfabcf1	-0.12243069
163	0xbe86095e	-0.26179022
164	0x3ecf45c4	0.40482914
165	0x3d489fc2	0.048980482
166	0xbbd1d9f7	-0.0064041573
167	0x3e7c985e	0.24667498
168	0x3eb01bb2	0.3439613
169	0x3cb8ea8c	0.022572778
170	0x3ee75f3b	0.45189843
171	0xbe920563	-0.28519735
172	0xbebafa4b	-0.36519083
173	0xbe1fb999	-0.15598144
174	0xbe75404b	-0.23950307
175	0xbec64c12	-0.38729912
176	0xbd405625	-0.046957154
177	0xbf2eda07	-0.68301433
178	0xbef77233	-0.48329315
179	0xbeb7fc40	-0.3593464
180	0xbdf1c0bf	-0.118043415
181	0xbe36d5fe	-0.17855069
182	0xbf44f109	-0.7693029
183	0x3f55406a	0.83301413
184	0x3e8679bf	0.2626476
185	0xbda8bb47	-0.08238845
186	0x3edf6a2d	0.43635693
187	0x3e3e6fc0	0.18597317
188	0xbe651e0c	-0.22374743
189	0xbd38f087	-0.04515126
190	0x3d9010f1	0.07034481
191	0x3dce380d	0.100692846
192	0x3e296792	0.16543415
193	0xbf0b9c88	-0.5453572
194	0xbcfcbbbe	-0.030851241
195	0xbda12e84	-0.078702
196	0xbec7e6e7	-0.39043352
197	0x3d98be2b	0.07458147
198	0xbec0314f	-0.3753762
199	0xbea240d5	-0.31690088
200	0xbe68fae7	-0.22751962
201	0xbeb39ebd	-0.35082045
202	0x3db047ac	0.0860742
203	0x3d445953	0.04793675
204	0x3f0403a8	0.5156808
205	0x3f2c5964	0.673239
206	0x3ed6436a	0.41848308
207	0x3de8c3d5	0.11365477
208	0x3e30de09	0.172722
209	0x3ed2a57c	0.4114188
210	0x3e249b99	0.16074981
211	0x3cc30065	0.023803899
212	0x3e169967	0.14706956
213	0x3e4dba7c	0.2009067
214	0xbd6baaa5	-0.057535786
215	0x3de702c4	0.112798244
216	0xbe8e935c	-0.278468
217	0xbecddb50	-0.40206385
218	0xbf137551	-0.57600886
219	0xbe53c0ca	-0.20679012
220	0xbc9de84b	-0.019275805
221	0xbdccc8dd	-0.09999249
222	0x3ec23d2b	0.37937292
223	0x3f10fe0a	0.5663763
224	0x3f343298	0.703897
225	0x3e940734	0.28911746
226	0x3dcc8638	0.09986538
227	0x3e2a9fe1	0.16662551
228	0xbed190f1	-0.40930894
229	0xbe3fe0a8	-0.18738043
230	0xbeb012c2	-0.3438931
231	0x3eb02ea6	0.3441059
232	0x3e7db582	0.24776271
233	0xbca5e758	-0.020251915
234	0x3b6d3e3f	0.0036200432
235	0x3d8a4b39	0.06752629
236	0x3e6b5620	0.22982073
237	0x3e98f1ce	0.29871982
238	0x3e0d20f2	0.13782099
239	0x3db28c7c	0.087182015
240	0xbe5f5c26	-0.21812496
241	0xbf06c8f5	-0.52650386
242	0xbecfd4cd	-0.40592042
243	0x3e55104f	0.20807002
244	0xbdd09619	-0.10184879
245	0x3d01a895	0.031654913
246	0xbeca1341	-0.39467815
247	0x3e772e8f	0.24138854
248	0x3e5597c9	0.20858683
249	0xbc57bb7f	-0.013167261
250	0x3de9cade	0.11415647
251	0x3e10458b	0.14089029
252	0xbeb6dd16	-0.3571555
253	0x3e9e5835	0.30926672
254	0x3e830398	0.2558868
255	0xbe4116f6	-0.18856415

block2.conv1.bias f4 [8]
0	0xbea969e4	-0.330886
1	0xbe8ce07e	-0.27515024
2	0xbf55ed7f	-0.83565515
3	0xbd7ee644	-0.062231317
4	0xbdba2381	-0.09088803
5	0x3f846b1d	1.0345188
6	0xbed30ae2	-0.4121924
7	0xbdfb00e0	-0.12256026

block2.bn1.weight f4 [8]
0	0x3f8e5019	1.1118194
1	0x3f8816f0	1.0632
2	0x3f765182	0.9621812
3	0x3f9fc790	1.2482777
4	0x3f81fcf5	1.0155321
5	0x3f86b6a6	1.052449
6	0x3f88fff8	1.0703115
7	0x3f99263d	1.1964794

block2.bn1.bias f4 [8]
0	0x3e9daefa	0.3079756
1	0x3e3ec49f	0.18629692
2	0x3e08fc5b	0.13377516
3	0x3ec62023	0.38696393
4	0xbda5e2b8	-0.08099884
5	0x3d0f80d4	0.03503497
6	0xbe20b42c	-0.1569373
7	0xbeb24de3	-0.34825048

block2.bn1.running_mean f4 [8]
0	0x3f630f22	0.88694966
1	0x3f4b7327	0.79472584
2	0x3eaffef0	0.3437419
3	0x40083dd7	2.1287744
4	0x3f8b6b13	1.0892051
5	0x3febc617	1.8419827
6	0x3f54093f	0.8282661
7	0x3f81f488	1.015275

block2.bn1.running_var f4 [8]
0	0x409a5f12	4.8241053
1	0x4020629e	2.506019
2	0x3faa48c5	1.3303457
3	0x414e093c	12.8772545
4	0x40afa8fe	5.489379
5	0x40b0ca39	5.5246854
6	0x40a57496	5.1704817
7	0x3feee760	1.866436

block2.conv2.weight f4 [8, 8, 3, 3]
0	0x3e2b280f	0.167145
1	0x3e1b764a	0.15181842
2	0xbe1b60ef	-0.15173696
3	0x3da393fb	0.079872094
4	0xbc01922f	-0.007908388
5	0xbd866820	-0.06562829
6	0x3ec94060	0.39306927
7	0x3e341ae2	0.1758838
8	0x3d2dcd36	0.042432033
9	0x3dbcf554	0.0922648
10	0x3e0764d4	0.13222057
11	0x3ddcd9c5	0.10783724
12	0xbeb611bf	-0.35560414
13	0xbea70241	-0.32618907
14	0xbe82138c	-0.25405538
15	0xbd06aa3d	-0.032877196
16	0x3d8edbac	0.06975493
17	0xbe5cda62	-0.21567681
18	0xbe7025c7	-0.23451911
19	0xbde2d8df	-0.11076521
20	0xbe0cee3a	-0.13762751
21	0xbe02d862	-0.12777856
22	0xbeebe7a6	-0.4607517
23	0xbf0d9bfe	-0.5531615
24	0xbf02e3f6	-0.5112909
25	0xbf019250	-0.5061388
26	0xbf305352	-0.68877137
27	0x3e7379ae	0.23776886
28	0x3dc69623	0.09696605
29	0x3e51b04c	0.20477408
30	0x3ef0b03f	0.47009465
31	0x3ee215bf	0.44157216
32	0x3e1dc248	0.15406144
33	0x3f1f7203	0.62283343
34	0x3eb0a231	0.34498742
35	0x3eee6fe9	0.46569756
36	0x3ec9d919	0.39423445
37	0x3d9ad572	0.07560243
38	0xbde919f2	-0.11381902
39	0x3e3dc09e	0.18530509
40	0xbde03d03	-0.10949137
41	0xbdd25d62	-0.102717176
42	0x3d8a5ebe	0.06756352
43	0x3dfbbcf4	0.12291899
44	0x3e00d164	0.12579876
45	0x3dd2ff83	0.10302641
46	0x3e76ad78	0.2408961
47	0x3e719f7e	0.23595998
48	0x3d4445da	0.04791818
49	0x3e03cf97	0.12872158
50	0x3e1e1b1a	0.15440026
51	0xbe08683e	-0.13321015
52	0x3e05ff6a	0.13085714
53	0xbe093a49	-0.1340114
54	0xbece2a14	-0.40266478
55	0xbe04edea	-0.12981382
56	0xbea99707	-0.33123037
57	0xbe0c48c7	-0.13699637
58	0xbeef2c5e	-0.46713537
59	0xbf1d936d	-0.6155308
60	0xbe13ec1e	-0.1444554
61	0xbde56ace	-0.11202012
62	0xbe9b0869	-0.30279854
63	0xbe228b20	-0.15873384
64	0xbeba1e41	-0.36351207
65	0xbe680551	-0.22658278
66	0xbe1b709f	-0.1517968
67	0xbea82989	-0.3284419
68	0x3cf147de	0.029453214
69	0xbe841d97	-0.25803825
70	0xbe9beb8a	-0.3045314
71	0xbdb92bfe	-0.09041594
72	0xbf1bce4b	-0.60861653
73	0xbecfb3a2	-0.40566736
74	0xbe91403c	-0.2836932
75	0xbf1c8d45	-0.6115306
76	0xbdb33b8b	-0.08751591
77	0x3d853302	0.065038696
78	0xbe17a588	-0.14809239
79	0x3e159c31	0.14610364
80	0xbe889216	-0.26673955
81	0xbebb50db	-0.36585125
82	0xbeceaf38	-0.40368056
83	0xbee0f9c4	-0.43940556
84	0xbd42394d	-0.047417928
85	0x3ecd2758	0.4006908
86	0x3e7bf0c2	0.2460356
87	0x3ec44497	0.3833358
88	0x3d480646	0.048834108
89	0x3ec9f7d7	0.394469
90	0xbe2bbe14	-0.16771728
91	0xbea777fd	-0.3270873
92	0x3e1a38ee	0.1506078
93	0xbdbd6772	-0.09248246
94	0x3caf26e2	0.021380845
95	0x3e139715	0.14413102
96	0x3d4e7524	0.050404683
97	0x3e8117b4	0.25213397
98	0x3e1c7a15	0.15280946
99	0xbedf611f	-0.43628785
100	0xbecf89f3	-0.40534934
101	0xbf188cad	-0.59589654
102	0xbecbf8f4	-0.39838374
103	0xbe190ecf	-0.14947055
104	0xbdb1581c	-0.08659384
105	0x3e40549c	0.18782276
106	0x3ed9316a	0.42420512
107	0x3e4b4b61	0.19852974
108	0xbeaf90e7	-0.3429024
109	0xbea185f2	-0.31547505
110	0xbdbd4db0	-0.09243333
111	0xbec4dc6c	-0.3844942
112	0x3e74852c	0.23878926
113	0x3dcc39d1	0.09971965
114	0x3dd2f575	0.103007235
115	0x3e2e3722	0.17013219
116	0x3ec10d8e	0.37705654
117	0xbea2511c	-0.31702507
118	0xbdef311a	-0.11679287
119	0x3e7ba623	0.24575095
120	0xbe99eed6	-0.3006503
121	0x3c792d0c	0.015208494
122	0x3e9ca849	0.3059714
123	0x3e8d1327	0.27553675
124	0x3eb0f5b9	0.34562472
125	0x3edd04a5	0.43167606
126	0xbda16e7d	-0.07882402
127	0x3e7a4a2a	0.24442354
128	0x3e55a2fa	0.20862952
129	0x3dfca702	0.12336542
130	0x3e63a852	0.22232178
131	0x3dd678d8	0.10472268
132	0x3ecdc01c	0.4018563
133	0x3d255def	0.040372785
134	0xbdf3a72f	-0.11897122
135	0xbe3dc483	-0.18531995
136	0x3c44e6c8	0.012017913
137	0x3e992547	0.29911253
138	0xbd1e4f4b	-0.03864984
139	0x3ea3c41c	0.31985557
140	0x3bd76ebf	0.0065744813
141	0x3e8ca0ed	0.27466527
142	0xbe4598ca	-0.19296566
143	0xbee2e2be	-0.44313616
144	0x3e8d75cb	0.2762893
145	0x3dca0b5d	0.098654486
146	0xbef69dc0	-0.4816723
147	0x3ed458aa	0.41473895
148	0x3ee8017a	0.45313627
149	0xbd8791e6	-0.06619625
150	0x3e67a89d	0.22622915
151	0xbe9c7a93	-0.30562267
152	0x3e1d4282	0.15357402
153	0x3e134d2b	0.14384906
154	0xbcc91f46	-0.024551045
155	0x3dd11ef3	0.10210981
156	0x3ecbdcd7	0.39816925
157	0x3ecb5006	0.3970949
158	0x3e5d29fa	0.21598044
159	0x3ea4a51c	0.32157218
160	0x3f2a07f5	0.6641839
161	0x3d151f6d	0.036406923
162	0xbe69a589	-0.22817053
163	0xbe32676d	-0.17422266
164	0xbf000fc6	-0.5002407
165	0xbe83bfcd	-0.2573227
166	0xbdb8ac48	-0.09017235
167	0x3e889292	0.26674324
168	0xbd6ed83f	-0.058311697
169	0xbdb372b3	-0.087621115
170	0x3e2e9734	0.17049867
171	0x3efacb87	0.48983404
172	0xbde593b8	-0.11209816
173	0xbf1bfd3e	-0.6093329
174	0x3e7603a9	0.24024834
175	0xbe6d5093	-0.23175268
176	0xbf37c793	-0.717889
177	0xbec640ec	-0.38721406
178	0xbe7f853a	-0.24953166
179	0xbf0d9f9e	-0.5532168
180	0x3dec3ca4	0.11535004
181	0xbe9de43d	-0.30838194
182	0xbe694c82	-0.22783092
183	0x3e9d4a18	0.30720592
184	0x3e45d355	0.19318898
185	0x3e18e7fa	0.14932242
186	0x3e5cfd67	0.2158104
187	0x3e7f622f	0.24939798
188	0x3e21c767	0.15798722
189	0xbd495b9d	-0.049159635
190	0x3e09ba8e	0.13450071
191	0x3e3fe652	0.18740204
192	0xbd6799bc	-0.056543097
193	0x3eb68581	0.3564873
194	0x3f33ea1c	0.702791
195	0xbf01bec8	-0.50681734
196	0xbe776620	-0.24160051
197	0x3f0c41a2	0.5478765
198	0x3ee5e33b	0.44899926
199	0xbf05d2f6	-0.52275026
200	0xbefed089	-0.49768475
201	0x3ea88727	0.32915613
202	0x3e257710	0.161587
203	0xbed47cd4	-0.41501486
204	0x3e899df2	0.26878315
205	0x3c844eb6	0.016150814
206	0xbe5332df	-0.20624875
207	0xbdde2b62	-0.10848118
208	0x3eab31f0	0.33436537
209	0x3f2069ea	0.6266161
210	0x3e39c83a	0.18142787
211	0x3e7293bc	0.23689169
212	0x3f070d2a	0.5275446
213	0xbe6af4f5	-0.22945006
214	0xbd9fd82a	-0.07804902
215	0x3ececfc1	0.4039288
216	0xbd9be732	-0.076124564
217	0x3e89081f	0.26764008
218	0x3e1c483b	0.15261929
219	0x3dcbed20	0.099573374
220	0x3e909a1e	0.28242582
221	0x3e80839e	0.25100416
222	0x3eb5522b	0.35414252
223	0x3e0b2d99	0.13591613
224	0x3ed42c39	0.4143999
225	0xbdd683f2	-0.10474385
226	0xbdc3ccf7	-0.09560578
227	0x3dc06dbe	0.09395932
228	0x3ede0a8c	0.43367422
229	0x3e0bc495	0.13649209
230	0xbd90f8a0	-0.070786715
231	0x3e024bab	0.12724178
232	0x3d89c419	0.06726856
233	0x3e1b8bb6	0.15190014
234	0x3e92869f	0.28618333
235	0x3daa3802	0.08311464
236	0x3d014ab5	0.031565387
237	0x3f01943b	0.50616807
238	0x3eba5bf9	0.36398295
239	0xbda9ab98	-0.08284682
240	0x3efba207	0.49147055
241	0x3efaff79	0.49023035
242	0x3e7d0666	0.24709472
243	0x3da4e84c	0.080521196
244	0x3ed26c19	0.41098097
245	0x3e9a4829	0.3013318
246	0x3e8f286d	0.2796053
247	0x3f24a9b4	0.64321446
248	0x3eaf464e	0.34233326
249	0x3e9ecc43	0.31015214
250	0x3d59aef5	0.053145368
251	0x3e0da4d5	0.1383241
252	0x3eb7a18c	0.35865438
253	0x3d957612	0.07297911
254	0xbe911ae0	-0.28340816
255	0x3e931291	0.28725103

block2.conv2.bias f4 [8]
0	0x3c064ca5	0.008196984
1	0xbe220c4d	-0.15825005
2	0xbee6f4c8	-0.45108628
3	0x3e069018	0.13140905
4	0xbdd953b8	-0.10611671
5	0xbf031557	-0.51204437
6	0xbe9538dd	-0.29144946
7	0xbe059ca3	-0.13048033

block2.bn2.weight f4 [8]
0	0x3f8f7dd8	1.121028
1	0x3f5ae1aa	0.85500586
2	0x3f9d856a	1.230634
3	0x3f9003ca	1.1251156
4	0x3f712446	0.94195974
5	0x3f69e4a5	0.9136451
6	0x3f93afaa	1.1537983
7	0x3f924540	1.1427383

block2.bn2.bias f4 [8]
0	0x3de80fa0	0.11331105
1	0x3e3077cb	0.17233197
2	0x3df778c9	0.12083585
3	0x3e166742	0.14687827
4	0xbee7bc0a	-0.4526065
5	0x3e9f1378	0.3106954
6	0x3f139469	0.5764833
7	0xbe1d0efc	-0.15337747

block2.bn2.running_mean f4 [8]
0	0x40082fea	2.1279244
1	0x3f2e6a37	0.6813082
2	0x3f7697e7	0.96325535
3	0x401dc252	2.4649854
4	0x4047805b	3.1172092
5	0x3fab922c	1.3403983
6	0x3fd9aff0	1.7006817
7	0x3fc35425	1.5260054

block2.bn2.running_var f4 [8]
0	0x41059706	8.349371
1	0x40239f72	2.5566068
2	0x40e279fe	7.0773916
3	0x416a96c7	14.661811
4	0x419c8c18	19.568405
5	0x4103aafa	8.229242
6	0x417e7237	15.9028845
7	0x40ac5d87	5.386417

block3.conv1.weight f4 [16, 8, 3, 3]
0	0x3e876846	0.26446742
1	0xbf0a1f91	-0.53954417
2	0xbf4fbe76	-0.81149995
3	0x3eed492c	0.46344888
4	0xbc22b31a	-0.009930396
5	0xbf475476	-0.7786325
6	0xbe97a62c	-0.29618967
7	0x3d91d65f	0.07120966
8	0x3eb2dafb	0.34932694
9	0xbe691fce	-0.22766039
10	0xbee8708c	-0.45398366
11	0xbeb0cd0e	-0.34531444
12	0xbed57845	-0.4169332
13	0xbe777c2c	-0.24168462
14	0x3e0da97f	0.13834189
15	0xbf09483d	-0.5362585
16	0xbf0b7f0e	-0.54490745
17	0xbf14cc78	-0.58124495
18	0xbb98f871	-0.0046682884
19	0xbe4fa857	-0.2027906
20	0xbeee7289	-0.46571758
21	0x3ec61737	0.38689587
22	0x3ee1afb5	0.44079366
23	0x3d9f6458	0.07782811
24	0xbee8260b	-0.45341524
25	0x3d2985db	0.04138742
26	0x3e9e4deb	0.30918822
27	0x3e327f76	0.17431435
28	0x3e94ca38	0.2906053
29	0xbf2afa9e	-0.6678866
30	0x3e7b90ec	0.24567002
31	0x3ed789d0	0.4209733
32	0x3e9b38fd	0.30316916
33	0xbf5ec1fd	-0.8701475
34	0xbf28c645	-0.65927535
35	0x3eea6e96	0.45787495
36	0x3e98f2c2	0.2987271
37	0xbeae0258	-0.33986163
38	0xbf067562	-0.5252286
39	0xbca14fbd	-0.019691342
40	0x3c9c5b8e	0.019086625
41	0x3da130a1	0.07870603
42	0xbe2e4d60	-0.17021704
43	0x3e5632f6	0.20917878
44	0xbe458d33	-0.19292144
45	0xbebb6496	-0.36600178
46	0xbe3df8f3	-0.18551998
47	0x3df21343	0.1182008
48	0x3d845c3b	0.06462904
49	0xbe29e8d9	-0.1659273
50	0xbebcc9c0	-0.36872673
51	0x3f67a88a	0.90491545
52	0x3e162680	0.14663124
53	0xbf01b80f	-0.50671476
54	0xbdbcf115	-0.0922567
55	0x3d9fd886	0.078049704
56	0x3ea45312	0.32094628
57	0x3b795a9d	0.0038048394
58	0xbe1fa9f0	-0.1559217
59	0xbd15e038	-0.036590785
60	0x3ebfbfd5	0.37451044
61	0xbdd59550	-0.1042887
62	0xbe460789	-0.19338812
63	0xbe7a4210	-0.24439263
64	0xbe3ea9c1	-0.18619443
65	0x3e141d1b	0.14464228
66	0xbd0ce449	-0.034397397
67	0xbe833a0b	-0.2563022
68	0xbd257764	-0.040397063
69	0x3f2d98ee	0.6781148
70	0xbed0002d	-0.40625134
71	0xbf12d71c	-0.5735948
72	0x3e54e491	0.20790316
73	0x3e28b038	0.16473472
74	0xbd259959	-0.040429447
75	0xbc72f904	-0.014829878
76	0x3e4b4c7d	0.19853397
77	0xbd0182c8	-0.031618863
78	0xbefe3863	-0.49652395
79	0xbd117505	-0.03551199
80	0xbedd276e	-0.43194145
81	0xbf1d12f8	-0.6135707
82	0xbdc1be29	-0.09460098
83	0x3e3ed255	0.18634923
84	0x3db8a1a6	0.09015207
85	0xbe3df6af	-0.18551134
86	0xbe059c09	-0.13047804
87	0xbd21507e	-0.039383404
88	0xbd115f9b	-0.035491567
89	0x3ec01d65	0.37522426
90	0x3dc3e02c	0.09564242
91	0xbe4fdbc8	-0.20298684
92	0xbe00ad4a	-0.12566105
93	0xbf049064	-0.5178282
94	0x3ea4c441	0.3218098
95	0x3e550065	0.20800932
96	0xbe97f00e	-0.29675335
97	0x3debb4e4	0.115091115
98	0x3c00b1e5	0.007854913
99	0x3da25515	0.07926384
100	0x3e8dc3ac	0.27688348
101	0xbde8f20d	-0.113742925
102	0xbe8a32fc	-0.26992023
103	0x3eb99978	0.362499
104	0xbe6c16af	-0.23055528
105	0xbf17ad07	-0.59248394
106	0xbdd1d77a	-0.10246177
107	0xbdccc796	-0.099990055
108	0x3e8e28ed	0.277656
109	0x3ed19a66	0.4093811
110	0x3e92b594	0.28654158
111	0xbdfd9afc	-0.123830765
112	0x3e44f769	0.19235004
113	0xbe038498	-0.12843549
114	0x3e604cd8	0.21904314
115	0x3eaf1a44	0.34199727
116	0xbee21dd5	-0.44163385
117	0xbdf500fa	-0.11963077
118	0xbcd4ee29	-0.02599247
119	0x3ed057f6	0.4069211
120	0xbe887b67	-0.2665665
121	0x3d20e137	0.03927728
122	0x3cbc789c	0.02300673
123	0xbeaef1ed	-0.3416895
124	0xbd575dc1	-0.052579645
125	0xbf43c6d5	-0.7647527
126	0x3ea70a79	0.32625178
127	0x3e5a0a0b	0.21292894
128	0x3e80675c	0.25078857
129	0xbf03cbe5	-0.51482993
130	0x3daf748a	0.0856715
131	0xbe99bf85	-0.3002893
132	0xbf112216	-0.56692636
133	0xbf2f2736	-0.68419206
134	0xbf82f7d3	-1.023188
135	0x3d4dbd99	0.050229643
136	0x3cdf72aa	0.027276356
137	0xbe5aa9c9	-0.2135383
138	0xbdd5753d	-0.10422752
139	0x3ea1a2ea	0.31569606
140	0x3cc6ab3d	0.024251575
141	0x3e416268	0.18885195
142	0x3ebe908a	0.3721965
143	0xbf161bdc	-0.5863626
144	0xbeae8d8b	-0.34092364
145	0xbe8ce9fa	-0.2752226
146	0xbf0bfe4b	-0.54684895
147	0xbe643871	-0.22287156
148	0xbdbe2ccf	-0.0928589
149	0xbd378067	-0.04480019
150	0xbeac7d97	-0.33689567
151	0xbde6a9db	-0.11262866
152	0xbdf26752	-0.11836113
153	0xbdc087e7	-0.09400921
154	0x3ea4ba38	0.32173324
155	0x3e2dc85e	0.16970965
156	0xbd13d722	-0.03609384
157	0xbe81b6ef	-0.2533488
158	0xbdef0d2d	-0.11672435
159	0xbdcc29a6	-0.09968881
160	0x3e1c6fca	0.15277019
161	0xbe513da5	-0.20433672
162	0xbf0d5d2d	-0.552203
163	0xbea33573	-0.31876716
164	0x3dff99f2	0.124805346
165	0x3e888a05	0.266678
166	0xbe3b388e	-0.18283293
167	0xbdf50c46	-0.119652316
168	0x3e7089bd	0.23490043
169	0xbec0defc	-0.37670124
170	0xbf124ecd	-0.5715149
171	0xbf1a062a	-0.60165656
172	0xbe34b3e3	-0.17646746
173	0x3dc23f9a	0.09484787
174	0xbcf189cb	-0.02948465
175	0xbe40b8c3	-0.18820481
176	0xbe11fa13	-0.14255552
177	0xbcf1dc21	-0.029523911
178	0xbe9c8b50	-0.30575037
179	0xbec494a7	-0.38394663
180	0xbe551a83	-0.20810895
181	0xbbe270f9	-0.00691044
182	0x3e4eb53f	0.20186327
183	0x3dcaf7d4	0.09910551
184	0x3eca08f3	0.39459953
185	0x3ecf6a9e	0.4051103
186	0xbd96139c	-0.07327959
187	0xbdf2133f	-0.11820077
188	0xbddced6f	-0.10787474
189	0xbf2e85c3	-0.68172854
190	0xbe805c3f	-0.25070378
191	0x3e118c70	0.14213729
192	0xbe466258	-0.19373453
193	0x3e801feb	0.2502435
194	0x3f0a0c90	0.5392542
195	0xbd99a1bf	-0.07501554
196	0x3d4495dc	0.04799448
197	0x3dad06b3	0.084485434
198	0xbeb8599d	-0.3600587
199	0xbe90f3ef	-0.28311107
200	0x3e4a0172	0.19727114
201	0xbeab3992	-0.3344236
202	0xbeefddd6	-0.46848935
203	0xbddd6fd9	-0.10812349
204	0xbe5d193e	-0.2159166
205	0xbe486b8f	-0.1957228
206	0x3aba0a72	0.0014193787
207	0x3d879c6d	0.06621633
208	0xbdb6bbb4	-0.0892252
209	0xbe283985	-0.16428192
210	0x3e91813a	0.28418905
211	0x3df2cec5	0.118558444
212	0x3e794c77	0.24345575
213	0x3e56a47d	0.20961185
214	0x3d8d1f33	0.068907164
215	0x3d91f3ef	0.07126605
216	0x3e97d8a4	0.2965747
217	0x3eeb4d28	0.45957303
218	0x3e93fb45	0.2890264
219	0x3d4d6db8	0.050153464
220	0xbd094cb5	-0.03352042
221	0x3e4d42a6	0.20044956
222	0x3f1ba108	0.6079259
223	0x3f22df03	0.6362154
224	0x3f2a6500	0.66560364
225	0x3dd84a89	0.105610915
226	0xbeb28f8c	-0.34875143
227	0xbee10d00	-0.4395523
228	0xbcd79077	-0.026314003
229	0xbe9a0483	-0.30081567
230	0xbe9df156	-0.30848187
231	0xbe1efa33	-0.15525131
232	0xbd6b0e19	-0.05738649
233	0xbe787711	-0.2426417
234	0x3e8a9a5d	0.27070895
235	0x3d9b5a47	0.075855784
236	0xbdf922de	-0.121648535
237	0x3e93eba7	0.28890726
238	0x3e227063	0.15863185
239	0x3e072211	0.13196589
240	0x3e4ef58d	0.20210858
241	0x3dface8d	0.12246428
242	0x3e3e455c	0.18581146
243	0xbe738e90	-0.23784852
244	0xbe64d01d	-0.22345014
245	0xbeb07b20	-0.34468937
246	0xbdc1f039	-0.09469647
247	0xbdbc7ead	-0.09203849
248	0xbe3939a9	-0.18088402
249	0xbc8d1a71	-0.017224522
250	0x3e9872bc	0.29775035
251	0x3ea16e16	0.315293
252	0x3e214c82	0.15751842
253	0xbe10780e	-0.14108297
254	0xbe788f4c	-0.24273413
255	0x3e6e9527	0.23299085

block3.conv1.bias f4 [16]
0	0xbe2bfb61	-0.16795112
1	0xbe941c51	-0.28927854
2	0xbd84709f	-0.06466793
3	0x3e0ba78e	0.13638136
4	0xbe412161	-0.1886039
5	0xbef43d4d	-0.4770302
6	0xbe4bedae	-0.19914886
7	0xbf34b3d1	-0.7058688
8	0xbef7d8a7	-0.4840748
9	0x3e44f217	0.19232975
10	0xbf5cd2ed	-0.8625935
11	0xbe627e30	-0.22118449
12	0xbee70d17	-0.45127174
13	0xbf8378f0	-1.0271282
14	0xbed87918	-0.42279887
15	0xbe0cf558	-0.13765466

block3.bn1.weight f4 [16]
0	0x3f8f158e	1.1178453
1	0x3f8049a3	1.0022472
2	0x3f7e5289	0.9934469
3	0x3f6c0a53	0.92203254
4	0x3f7b6f10	0.9821634
5	0x3f98bb28	1.1932116
6	0x3fae8d36	1.3636844
7	0x3f80c6ad	1.0060631
8	0x3f612621	0.87948805
9	0x3f84c514	1.0372643
10	0x3f934260	1.1504631
11	0x3fa7e21e	1.311588
12	0x3f7760f7	0.9663233
13	0x3f7bdb88	0.98381853
14	0x3faf8efc	1.371551
15	0x3fa5f518	1.2965422

block3.bn1.bias f4 [16]
0	0x3e4c42f3	0.19947414
1	0x3e26ff77	0.1630839
2	0x3dafd35c	0.085852355
3	0xbe4f1a4a	-0.20224872
4	0x3e64b16f	0.2233331
5	0x3e9220d3	0.28540668
6	0x3eede430	0.46463156
7	0x3e700aad	0.23441572
8	0x3f075f72	0.52880013
9	0xbecd5d85	-0.40110412
10	0x3e9b885a	0.30377465
11	0x3e1c980b	0.15292375
12	0x3ebce826	0.36895865
13	0x3e88464a	0.26616126
14	0x3e8eefc7	0.2791731
15	0x3e6c3422	0.23066762

block3.bn1.running_mean f4 [16]
0	0x3f65dc9d	0.89789754
1	0x3eda7ef4	0.42674983
2	0x3eb9236f	0.36159846
3	0x400a9ce8	2.1658268
4	0x3fa348b0	1.2756557
5	0x3f72b281	0.94803625
6	0x3f95a78f	1.169176
7	0x3f87cf54	1.0610147
8	0x40a45689	5.1355634
9	0x3f1e4dc6	0.6183742
10	0x3fad3c9d	1.3534123
11	0x3fe1bdbc	1.7636027
12	0x3fe4f639	1.7887641
13	0x3fbef52f	1.4918574
14	0x3f68b82e	0.90906036
15	0x3f8d3982	1.1033175

block3.bn1.running_var f4 [16]
0	0x40b06f1e	5.513564
1	0x3fe0755e	1.7535818
2	0x3f692256	0.9106802
3	0x412e7f38	10.906059
4	0x409b2e88	4.84943
5	0x40acdfc8	5.402317
6	0x409e1de1	4.9411473
7	0x4097cc76	4.7437086
8	0x42073c85	33.8091
9	0x4041b85b	3.0268772
10	0x40fbca2d	7.8684297
11	0x4139c248	11.609932
12	0x4106f109	8.433846
13	0x411f6b92	9.963762
14	0x40aa1a30	5.3156967
15	0x406d150d	3.7044098

block3.conv2.weight f4 [16, 16, 3, 3]
0	0x3d9dab6e	0.07698713
1	0x3e0f61dd	0.14002176
2	0x3e9fb5de	0.3119344
3	0xbcb1b41d	-0.02169233
4	0xbea3642f	-0.31912372
5	0x3d8a61ac	0.06756911
6	0xbed83a1b	-0.4223183
7	0xbe9a27f0	-0.30108595
8	0xbec59bf2	-0.3859554
9	0x3eaca27b	0.33717713
10	0x3e4d5f95	0.20055993
11	0x3ea7fd30	0.32810354
12	0x3e133559	0.1437582
13	0x3e6b29d2	0.22965172
14	0x3ed49f61	0.41527846
15	0xbd716c0b	-0.05894093
16	0xbe0a6491	-0.13514926
17	0xbeaa848d	-0.33304253
18	0x3ece14aa	0.4025014
19	0xbe08e97d	-0.13370319
20	0xbf08e168	-0.5346894
21	0x3eaee411	0.34158376
22	0x3f1cc15a	0.6123253
23	0x3e5657bd	0.20931907
24	0x3e1df845	0.15426739
25	0x3ed102d8	0.40822482
26	0x3df715b2	0.12064685
27	0xbe9d8ffd	-0.30773917
28	0xbecb1a19	-0.39668348
29	0xbe71c224	-0.23609215
30	0x3e50d979	0.20395459
31	0xbe500b56	-0.20316824
32	0x3cc3048c	0.023805879
33	0x3f5866f4	0.84532094
34	0x3f26ab14	0.65104795
35	0x3f166164	0.58742356
36	0xbe1fa495	-0.15590127
37	0xbea12ea6	-0.31480902
38	0xbf1a9aec	-0.6039264
39	0x3e4092a8	0.18805945
40	0xbe5de7d3	-0.21670465
41	0xbe4b42fe	-0.19849774
42	0x3f39506a	0.7238833
43	0x3ec5005d	0.3847684
44	0x3e46b6a8	0.19405615
45	0xbeda601d	-0.42651454
46	0xbe75a5dc	-0.23989052
47	0xbdc4e007	-0.09613042
48	0x3e2f3301	0.171093
49	0x3beb893c	0.0071879905
50	0x3d3e9c6c	0.046535894
51	0x3ec03140	0.37537575
52	0x3ec143f9	0.37747172
53	0x3e69c99f	0.22830819
54	0x3e65e53b	0.22450726
55	0xbe12a5c3	-0.14321046
56	0xbce66843	-0.028125888
57	0xbe189b7d	-0.14903064
58	0xbf763783	-0.96178454
59	0xbf8f92d7	-1.1216687
60	0x3eb69f0e	0.35668224
61	0x3ee288d1	0.44245008
62	0x3e9aca25	0.3023235
63	0xbe37abed	-0.17936678
64	0xbe5145e7	-0.20436822
65	0xbed19259	-0.40931967
66	0x3cd99787	0.026561512
67	0xbe449cef	-0.1920049
68	0x3e39567d	0.18099399
69	0x3d088415	0.03332909
70	0xbbf47bb4	-0.0074610356
71	0x3e480375	0.19532569
72	0xbe63e255	-0.22254308
73	0xbdd81462	-0.10550763
74	0xbec0ae20	-0.37632847
75	0xbe24e5d2	-0.16103294
76	0x3d07c0fa	0.03314302
77	0x3d2693b0	0.04066819
78	0xbde0a07e	-0.109681115
79	0x3dd159d6	0.10222213
80	0xbdc2472a	-0.0948623
81	0x3dd5abde	0.10433172
82	0xbd75f593	-0.06004865
83	0xbe2597b2	-0.16171148
84	0xbd72bfa6	-0.0592648
85	0x3e2dbb39	0.16965951
86	0x3e11831c	0.1421017
87	0xbf0feb04	-0.5621798
88	0xbf0cf689	-0.5506368
89	0xbf170291	-0.5898829
90	0xbf448325	-0.7676261
91	0xbecaacc9	-0.3958495
92	0xbee6510e	-0.44983715
93	0xbf072267	-0.5278687
94	0xbec38a0c	-0.3819126
95	0xbe4625fb	-0.19350426
96	0x3e595701	0.21224596
97	0x3d6c6a47	0.05771854
98	0x3d7efa6d	0.062250543
99	0x3e4b5d73	0.19859867
100	0x3e0dbc3b	0.13841335
101	0x3e9299d6	0.28632993
102	0x3e107fd8	0.14111269
103	0x3ea0e23a	0.31422597
104	0x3ed979e7	0.42475817
105	0x3c358790	0.011079684
106	0xbc088ab4	-0.008333851
107	0xbe9a6c5d	-0.301608
108	0x3d062ba9	0.03275648
109	0x3e985d97	0.29758903
110	0x3ec4d4d9	0.3844364
111	0x3c4323c1	0.01191038
112	0x3ebaeaa9	0.36507156
113	0x3eb54042	0.35400587
114	0x3ea6f095	0.32605425
115	0x3dfec10f	0.12439167
116	0xbc3221f7	-0.010872356
117	0x3dfe997e	0.1243162
118	0xbd9a3778	-0.07530111
119	0x3dc8c5a6	0.098033234
120	0x3e5bc71d	0.21462674
121	0x3e6530a9	0.22381844
122	0x3ec179e2	0.37788302
123	0xbd3ad318	-0.04561147
124	0x3dadf4d8	0.08493966
125	0x3e07a08f	0.13244842
126	0x3dd67da6	0.10473184
127	0x3e668a05	0.22513588
128	0xbe2003b9	-0.1562642
129	0xbecd40b3	-0.40088424
130	0xbec8bfcb	-0.39208826
131	0xbe61a42e	-0.22035286
132	0xbf57b069	-0.84253556
133	0xbd1968d4	-0.037453488
134	0x3da3dd74	0.08001223
135	0x3b3be5c9	0.0028670898
136	0xbd1139bd	-0.035455454
137	0xbe979e3a	-0.29612905
138	0xbe949874	-0.29022563
139	0x3d8f5770	0.06999099
140	0x3dce3ce7	0.1007021
141	0xbeacb14d	-0.3372902
142	0xbb3964e8	-0.0028288905
143	0xb9b7f4be	-0.00035086827
144	0x3b82520a	0.003977065
145	0x3e4c8cf0	0.19975638
146	0x3f07fe4b	0.53122395
147	0xbd7382bb	-0.059450846
148	0xbd6e106d	-0.058121134
149	0x3e71cc24	0.2361303
150	0x3dd4b8f4	0.103868395
151	0xbeb77444	-0.3583089
152	0xbe06050f	-0.13087867
153	0x3e9cc1cd	0.30616608
154	0x3e3ecd9a	0.18633118
155	0x3f0ba507	0.54548687
156	0xbd333363	-0.043750178
157	0xbdbb3ec2	-0.091428295
158	0xbdcec58b	-0.10096272
159	0x3eceb7c2	0.4037457
160	0xbcf6727e	-0.030083891
161	0xbe36cdde	-0.1785197
162	0x3df03b51	0.11730064
163	0xbe0d69f6	-0.13809952
164	0xbf1d3a47	-0.6141705
165	0x3e5f032a	0.2177855
166	0xbd0e3580	-0.03471899
167	0xbe460c80	-0.19340706
168	0xbe8f86e6	-0.28032607
169	0xbf0ad3d5	-0.5422948
170	0xbec013a5	-0.37514988
171	0x3e80f1c9	0.25184467
172	0xbe66d0c0	-0.2254057
173	0xbe7870eb	-0.24261825
174	0x3e2670c7	0.16253959
175	0xbe772254	-0.24134189
176	0x3e147863	0.14499049
177	0x3da231ef	0.0791968
178	0xbeaf6cf2	-0.34262806
179	0x3e32a617	0.17446171
180	0x3eb352f6	0.35024232
181	0x3e36f5a1	0.17867137
182	0x3e25b043	0.1618052
183	0xbe904d8a	-0.28184158
184	0xbeb9d0b9	-0.36292055
185	0xbea91046	-0.33020228
186	0xbebbcecc	-0.3668121
187	0xbf0eb47f	-0.55744165
188	0xbf01a4c8	-0.5064206
189	0x3ee1e3ca	0.44119102
190	0xbd22fef5	-0.039793927
191	0xbdcd71e4	-0.100314885
192	0x3e667a9c	0.2250771
193	0xbe812d75	-0.25229993
194	0x3ce89764	0.028392501
195	0x3c46ff1a	0.012145782
196	0xbf2ced82	-0.6754991
197	0xbeaaee7b	-0.3338507
198	0x3e974cfa	0.29550916
199	0x3eecbdfb	0.46238694
200	0x3eeb8ae5	0.46004406
201	0x3d43b7b7	0.047782626
202	0x3e4d0792	0.20022419
203	0x3c5e33eb	0.013562183
204	0xbf127891	-0.5721522
205	0xbf2fe261	-0.687048
206	0xbf07dbb4	-0.53069615
207	0xbb5b5127	-0.0033465119
208	0x3e4912f9	0.19636144
209	0x3d00c204	0.031435028
210	0xbdcc6001	-0.09979249
211	0x3e18cca4	0.14921814
212	0xbecc6357	-0.3991954
213	0xbf13fc66	-0.57807004
214	0x3cd1d0ed	0.025612319
215	0xbe2adfd7	-0.1668695
216	0x3e796ecd	0.24358673
217	0xbd9055ba	-0.07047601
218	0xbd976cdb	-0.073938094
219	0xbdd16cbb	-0.10225817
220	0xbed3211d	-0.412362
221	0xbe007dbc	-0.12547964
222	0xbaf6675c	-0.0018799114
223	0xbeeb567d	-0.45964423
224	0x3d81dd99	0.063410945
225	0xbe37459d	-0.17897649
226	0xbe3a4242	-0.18189338
227	0xbd325f04	-0.043547645
228	0x3d90a944	0.07063535
229	0x3eac07c2	0.3359967
230	0x3eed0948	0.46296144
231	0xbd572a70	-0.052530706
232	0x3e3e69e0	0.18595076
233	0x3cac784a	0.021053452
234	0xbf15cace	-0.5851258
235	0xbeef9917	-0.46796486
236	0xbecceaa4	-0.40022767
237	0xbf387a5c	-0.72061706
238	0xbf171330	-0.5901365
239	0xbea1d189	-0.31605175
240	0xbefa1778	-0.4884603
241	0x3e44be7b	0.19213288
242	0x3ed73987	0.42036077
243	0x3ee71ce6	0.45139235
244	0x3e813a55	0.25239816
245	0x3ed7f8fd	0.4218215
246	0xbcdbacda	-0.02681582
247	0x3d4cb559	0.049977634
248	0x3e4565e9	0.19277157
249	0x3ea2ed37	0.31821606
250	0xbeb44150	-0.3520608
251	0xbf46f8e9	-0.77723557
252	0xbf79401f	-0.97363466
253	0xbf08aae6	-0.5338577
254	0xbd7801e4	-0.060548678
255	0xbf376f3e	-0.7165412

block3.conv2.bias f4 [16]
0	0xbeca9b29	-0.39571503
1	0x3e2a07b5	0.16604502
2	0x3d6627d2	0.05619032
3	0xbecc9a40	-0.39961433
4	0x3e415168	0.1887871
5	0xbecd3d79	-0.40085962
6	0x3e871542	0.26383406
7	0xbea0ca27	-0.3140423
8	0x3ebc9370	0.36831236
9	0x3e6414e3	0.22273593
10	0x3dc9c0df	0.0985124
11	0x3e9bdbab	0.3044103
12	0xbea83d08	-0.32859063
13	0xbe89c1d8	-0.26905704
14	0x3f232a8c	0.63736796
15	0xbc2ab6dd	-0.010419575

block3.bn2.weight f4 [16]
0	0x403f9c6a	2.9939218
1	0x4050da2e	3.2633166
2	0x4037035e	2.8595805
3	0x403dd89f	2.9663465
4	0x4029580c	2.645999
5	0x40456df6	3.0848365
6	0x402360dc	2.5527868
7	0x405ef0f7	3.4834573
8	0x4049d829	3.1538184
9	0x404e476a	3.2231088
10	0x402160d4	2.521535
11	0x40268b1b	2.6022403
12	0x403fc348	2.996294
13	0x4056bddb	3.3553379
14	0x402a86a1	2.664467
15	0x40385341	2.8800814

block3.bn2.bias f4 [16]
0	0xbdc71676	-0.09721081
1	0x3e6a70b3	0.22894554
2	0xbd1e753e	-0.03868603
3	0xbc014421	-0.007889778
4	0x3e978967	0.29597017
5	0x3d55d496	0.05220469
6	0x3cbe2de5	0.023215244
7	0x3e2f9bed	0.17149325
8	0xbd736a6d	-0.059427667
9	0x3d2f70b9	0.04283211
10	0x3d89a264	0.06720427
11	0xbe89774c	-0.2684883
12	0xbece7649	-0.4032462
13	0x3deaf329	0.1147216
14	0xbda4f349	-0.080542155
15	0x3ecbea4d	0.39827195

block3.bn2.running_mean f4 [16]
0	0x3f95748b	1.1676191
1	0x3f8fc484	1.1231847
2	0x3e97dc4e	0.29660267
3	0x3f84ec69	1.0384647
4	0x3fed6a05	1.854798
5	0x3f3bd0fe	0.7336577
6	0x3f8d812c	1.1055045
7	0x3f89cfe7	1.0766572
8	0x3f879c6b	1.059461
9	0x3ff63840	1.9235916
10	0x3f6dd2a7	0.92899555
11	0x3fbccede	1.4750631
12	0x3f84c81a	1.0373566
13	0x3f5426aa	0.82871497
14	0x3fd6065a	1.6720688
15	0x3f80f9f0	1.0076275

block3.bn2.running_var f4 [16]
0	0x40bdf1ca	5.9357653
1	0x40855256	4.166301
2	0x3f8e845a	1.113414
3	0x40a81211	5.2522054
4	0x40f1389f	7.5381618
5	0x404c273d	3.189895
6	0x407fee44	3.9989176
7	0x40be6fb7	5.951137
8	0x406854ae	3.6301684
9	0x40f12a9f	7.536453
10	0x4042a1d6	3.0411277
11	0x40cb58c1	6.354584
12	0x407d1387	3.9543169
13	0x40a8d230	5.2756577
14	0x40d65dec	6.698965
15	0x4075269d	3.8304818

flat.weight f4 [10, 16, 1, 1]
0	0xbfc84969	-1.5647403
1	0x3e7dba5c	0.24778122
2	0xbe8ab7df	-0.27093408
3	0x3fb5ae27	1.4193772
4	0xbfb140d2	-1.3847907
5	0x3f0c3c86	0.5477985
6	0x3f9f9d01	1.2469789
7	0xbfadca21	-1.357731
8	0xbf2a6e28	-0.66574335
9	0x3fcc56d3	1.5963997
10	0xbf4c718d	-0.79860765
11	0x3f894da3	1.0726818
12	0x3fd85265	1.6900145
13	0xbfd8ed5d	-1.6947438
14	0xbf9d5334	-1.2291017
15	0xbf3fd030	-0.74927044
16	0xbf0c8341	-0.5488778
17	0xc002ad6f	-2.0418355
18	0x3eee4598	0.4653747
19	0xbfc20cda	-1.5160172
20	0xbf9f1a05	-1.2429816
21	0x3dc4cc69	0.09609301
22	0xbc6bba7f	-0.014387726
23	0xbee5ff07	-0.44921133
24	0x3fd18393	1.6368278
25	0x3d25a53d	0.040440787
26	0x3f6d5f37	0.9272341
27	0x3fca4972	1.5803664
28	0xbf1f4e2d	-0.6222866
29	0x3ebeb785	0.3724939
30	0x3fb762ba	1.4327004
31	0xbf7b986f	-0.9827947
32	0x3fd89083	1.6919101
33	0xbee2bfd6	-0.44286984
34	0xbfaf795f	-1.3708915
35	0x3ec058c2	0.37567717
36	0x3f3eda7a	0.7455212
37	0xbfb77e5d	-1.4335438
38	0xbf961593	-1.1725334
39	0xbfcafe9c	-1.5858951
40	0x3fbab69e	1.458698
41	0x3f7f4b72	0.99724495
42	0xbf706d6c	-0.93916965
43	0xbede2e19	-0.43394545
44	0xbf117d56	-0.5683187
45	0xbfd7b292	-1.685137
46	0xbe495b68	-0.19663775
47	0x3f38a39b	0.7212464
48	0xbe4dbedb	-0.20092337
49	0xbe29ba72	-0.1657503
50	0xbf74bacf	-0.9559755
51	0xbef81344	-0.48452199
52	0x3fb9f1dc	1.4526935
53	0x3ebe58c8	0.3717711
54	0xbf61b467	-0.881659
55	0xbf986c24	-1.1908002
56	0xbf8c1dde	-1.0946615
57	0xbfb08d0f	-1.3793048
58	0xbf41e8c2	-0.75745785
59	0xbe8aab5a	-0.27083856
60	0x3d63e1aa	0.055635132
61	0xbb47e2c1	-0.0030500146
62	0x3fb80d8f	1.4379138
63	0xbfcf3212	-1.6187155
64	0x3fabaf5b	1.3412889
65	0x3fc25d4b	1.5184721
66	0xbe84df76	-0.25951737
67	0xbfd45a98	-1.6590147
68	0xbf3d9eb1	-0.7407027
69	0xbf8e9a47	-1.1140832
70	0x3f2ac6af	0.6670942
71	0x3faa32bb	1.3296732
72	0x3f875c31	1.057501
73	0xbf0c3785	-0.54772216
74	0xbf22a8f6	-0.63539064
75	0x3fb12b71	1.3841382
76	0xbe048163	-0.12939982
77	0x3f818a04	1.0120244
78	0xbf39b01c	-0.72534347
79	0xbe740bcf	-0.2383263
80	0xbf1abc08	-0.6044316
81	0x3bb112b4	0.005403841
82	0x3f9a3dd1	1.2050115
83	0xbf96513b	-1.174354
84	0x3e4a93d9	0.19782962
85	0x3f854efc	1.0414729
86	0xbde12a05	-0.10994343
87	0x3fca2767	1.5793275
88	0xbf8eaad5	-1.1145884
89	0x3fadc71d	1.357639
90	0xbf748d21	-0.95527846
91	0xbf44e886	-0.769173
92	0xbeda2435	-0.4260575
93	0x3e485145	0.19562252
94	0x3f2e3f6c	0.68065524
95	0xbfa427f7	-1.2824696
96	0x3f1a245e	0.6021174
97	0xbffbddfc	-1.9677119
98	0xbe98a93e	-0.29816622
99	0xbf638a17	-0.88882583
100	0x3caa060d	0.020754838
101	0xbee2c5a5	-0.44291416
102	0x3eea0a7f	0.45711133
103	0x3fc64083	1.5488437
104	0xbf441f50	-0.7661028
105	0x3f9b8933	1.2151245
106	0x3fa6693a	1.3000863
107	0x3b521574	0.0032056244
108	0x3fd4744f	1.6597995
109	0xbebbd5bd	-0.36686507
110	0x3ee5477e	0.44781107
111	0x3f18be7f	0.59665674
112	0x3ea08f42	0.31359297
113	0x3f09d456	0.53839624
114	0x3f9e713e	1.2378309
115	0x3fd8f314	1.6949182
116	0xbf828410	-1.0196552
117	0xbea490cd	-0.32141724
118	0xbf868d8c	-1.0511947
119	0xbf6179dd	-0.88076574
120	0x3fae4ce8	1.361722
121	0xbf9cb545	-1.2242819
122	0x3e74ba55	0.23899205
123	0xbf34021e	-0.7031573
124	0xbeb11039	-0.3458269
125	0x3fa6d6e6	1.3034332
126	0x3e382ae8	0.17985117
127	0xbfeab4e8	-1.8336458
128	0x3d418ac4	0.047251478
129	0xbfac7c4c	-1.3475432
130	0x3eb481d9	0.35255316
131	0xbe569f1e	-0.20959136
132	0x3f71c32c	0.94438434
133	0x3f80e7ff	1.00708
134	0x3fb0ea28	1.3821459
135	0x3eebad0a	0.46030456
136	0xbee04e61	-0.43809798
137	0xbfbb724e	-1.4644258
138	0x3f136625	0.57577735
139	0xbf358c7c	-0.7091749
140	0xbf302879	-0.68811756
141	0xbf7ddc45	-0.9916423
142	0xbfb023e0	-1.3760948
143	0x3f4cb0c3	0.79957217
144	0xbff93ab6	-1.9471042
145	0x3fc5a49c	1.544086
146	0xbf51748c	-0.8181846
147	0x3f6d9425	0.92804176
148	0x3df0a1b3	0.11749592
149	0xbf5c0d3f	-0.8595771
150	0xbee5d845	-0.44891563
151	0x3f55dc09	0.8353887
152	0xbed13734	-0.4086243
153	0x3f114a16	0.5675367
154	0x3f8a7443	1.081673
155	0x3eaf4ce4	0.3423835
156	0xbe8f0d6e	-0.27939934
157	0x3fb9fb8e	1.4529893
158	0xbecc1871	-0.39862397
159	0x3f8e0ec6	1.1098258

flat.bias f4 [10]
0	0xbe71196e	-0.23544857
1	0xbce207ce	-0.027591612
2	0x3e53ac88	0.20671284
3	0xbe4dbdad	-0.20091887
4	0x3dc53a8c	0.096303076
5	0x3e62764e	0.22115442
6	0xbea3f20e	-0.3202061
7	0xbe9abfa8	-0.30224347
8	0x3e251b8c	0.1612379
9	0x3eb6d140	0.3570652
