mnist/weight/model_weights_99.52.pth (torch, 35818 bytes, 56 tensors)

block1.conv1.weight f4 [4, 1, 3, 3]
3.1414678 2.3653474 -2.2587094 2.384369 1.6403451 -2.2823722 -1.4199541 -0.82845986
-0.669347 -2.4511373 -2.6162639 -1.3391006 1.7475193 2.1881866 -0.263238 3.55741
2.5424867 -0.9557103 -0.82137394 -0.11355109 0.41799113 -0.7983649 0.012551709 1.1505841
-1.2075223 0.7629138 0.6947334 0.6424523 -0.31789845 -0.55008644 0.4240266 -0.3860834
-0.5599012 -0.14223184 0.029887779 -0.8862803
00000000: cf0d 4940 da61 1740 b28e 10c0 8099 1840
00000010: d4f6 d13f 6312 12c0 0ec1 b5bf f215 54bf
00000020: 535a 2bbf 6fdf 1cc0 de70 27c0 a667 abbf
00000030: b6ae df3f 400b 0c40 22c7 86be 9bac 6340
00000040: 1ab8 2240 6ea9 74bf 9045 52bf 798d e8bd
00000050: ef02 d63e a461 4cbf afa5 4d3c 5746 933f
00000060: 1790 9abf 524e 433f 0cda 313f c177 243f
00000070: 96c3 a2be 77d2 0cbf 041a d93e b9ac c5be
00000080: af55 0fbf 39a5 11be 37d7 f43c 44e3 62bf

block1.conv1.bias f4 [4]
-5.9285236e-07 -3.4945154e-07 3.2594596e-07 -3.133422e-07
00000000: 8124 1fb5 419c bbb4 acfd ae34 6d39 a8b4

block1.n1.weight f4 [4]
3.1818438 2.326319 1.7243432 1.9879649
00000000: 54a3 4b40 69e2 1440 47b7 dc3f a275 fe3f

block1.n1.bias f4 [4]
-0.13809596 2.7132764 0.36125797 0.26877335
00000000: 0769 0dbe 52a6 2d40 cef6 b83e a99c 893e

block1.n1.running_mean f4 [4]
0.10068276 0.1235563 -0.0040146485 -0.122832604
00000000: c332 ce3d 160b fd3d 508d 83bb a98f fbbd

block1.n1.running_var f4 [4]
28.659538 30.075052 4.476535 3.3830206
00000000: bc46 e541 b599 f041 c63f 8f40 6983 5840

block1.conv2.weight f4 [4, 4, 3, 3]
-0.13067536 1.2436247 -0.2991306 1.4661276 1.9336833 -0.12891465 1.0192195 -0.15797904
-0.24119395 1.5893934 -1.0422119 -2.289778 -0.09591002 -0.96561825 -0.6190115 2.11521
1.1339656 0.32783666 0.38865504 -0.2420881 0.31731886 0.21658315 0.4405361 0.41885445
-0.48534867 -0.20915434 0.037089508 0.005905026 0.11946442 0.19272128 0.26356575 -0.016654296
0.10945465 -0.16917273 -0.4051962 -0.19877361 1.5512619 0.38640213 -0.19565658 0.7037327
-0.47451243 -1.6772141 0.3809174 -1.8962402 -1.8424839 -0.2680458 -1.5274187 -1.3275219
-0.08442086 -1.2438961 -0.4034954 0.40840423 -1.2504658 -0.3540542 -0.59418005 -0.5117573
-0.69440717 -0.022880655 0.004846666 0.4047106 -0.44372395 -0.2083759 -0.11519901 -0.038289383
-0.23930867 -0.26109186 0.17289943 0.18526058 0.41037148 -0.5534547 -0.46766052 -0.31790724
0.39670235 -0.05790619 -0.056984592 -1.1740241 -0.4837519 0.21561036 1.5802231 -0.4617434
0.021316897 1.770682 1.2732773 0.62930256 2.071208 -1.1441936 -1.1327137 -1.6993148
-2.859601 -1.2857647 -0.052163597 -0.80027306 -0.29372615 -0.76928675 -0.25108954 -0.30980524
-0.5169807 -0.1726351 -0.38298845 -0.6403177 -0.6330142 -0.14827524 -0.11257184 -0.38169053
-0.33673427 0.5034304 0.49097452 0.32337683 0.71782774 0.9370955 1.4598215 -2.9382436
-3.426872 -1.8143322 0.87187904 -0.3715697 1.0667435 -1.7405031 -3.3312023 -1.1525803
1.3212212 -0.22145626 0.1330461 1.1101682 1.471545 0.16141611 -1.4764174 -0.0053652837
0.043808524 -0.73141015 0.45898408 0.4776376 -0.39527237 0.2557441 0.0528145 -0.33509973
0.007128573 -1.4021202 -0.039988667 -0.17273067 -0.96295816 -0.35253415 -0.1611559 -0.7585204
00000000: c3cf 05be 182f 9f3f a527 99be 12aa bb3f
00000010: ef82 f73f 3402 04be c975 823f 42c5 21be
00000020: 8cfb 76be 3e71 cb3f 3367 85bf b98b 12c0
00000030: 796c c4bd c232 77bf 8a77 1ebf 9a5f 0740
00000040: c925 913f 35da a73e cbfd c63e f1e5 77be
00000050: 9e77 a23e f9c7 5d3e f38d e13e 1774 d63e
00000060: 9f7f f8be 8e2c 56be 2beb 173d f37e c13b
00000070: c3a9 f43d ba58 453e 17f2 863e 976e 88bc
00000080: c229 e03d 9e3b 2dbe e075 cfbe 4f8b 4bbe
00000090: c08f c63f 80d6 c53e 335a 48be d427 343f
000000a0: 4bf3 f2be f4ae d6bf 9b07 c33e 00b8 f2bf
000000b0: 83d6 ebbf 4d3d 89be 7582 c3bf 3dec a9bf
000000c0: d8e4 acbd fd37 9fbf f396 cebe 5c1a d13e
000000d0: 430f a0bf 9846 b5be 2f1c 18bf 8702 03bf
000000e0: abc4 31bf 3670 bbbc c8d0 9e3b 3a36 cf3e
000000f0: c92f e3be 7e60 55be 75ed ebbd 54d5 1cbd
00000100: 550d 75be d5ad 85be 8c0c 313e f3b4 3d3e
00000110: 361c d23e 35af 0dbf 3371 efbe bdc4 a2be
00000120: 921c cb3e 0b2f 6dbd ad68 69bd 6c46 96bf
00000130: 54ae f7be f6c8 5c3e c044 ca3f a269 ecbe
00000140: c6a0 ae3c b5a5 e23f c0fa a23f f919 213f
00000150: ac8e 0440 f074 92bf c3fc 90bf 2683 d9bf
00000160: b403 37c0 f093 a4bf 7fa9 55bd b2de 4cbf
00000170: 4663 96be faef 44bf cf8e 80be cb9e 9ebe
00000180: d958 04bf 41c7 30be 1017 c4be dceb 23bf
00000190: 380d 22bf 77d5 17be 118c e6bd f16c c3be
000001a0: 6f68 acbe d1e0 003f 0361 fb3e a691 a53e
000001b0: 8fc3 373f 7ee5 6f3f 6edb ba3f 2f0c 3cc0
000001c0: df51 5bc0 0a3c e8bf 7733 5f3f 623e bebe
000001d0: 0d8b 883f cec8 debf 6b32 55c0 c087 93bf
000001e0: c71d a93f 6ec5 62be 3d3d 083e fe19 8e3f
000001f0: 965b bc3f 444a 253e 3ffb bcbf 43cf afbb
00000200: 9170 333d b23d 3bbf f6ff ea3e ea8c f43e
00000210: 2461 cabe e4f0 823e 0454 583d 3192 abbe
00000220: ce96 e93b ad78 b3bf 28cb 23bd 4fe0 30be
00000230: 6d84 76bf 5b7f b4be 0d06 25be 652e 42bf

block1.conv2.bias f4 [4]
8.470811e-08 8.78088e-08 -1.6188288e-07 -2.9692428e-08
00000000: c7e8 b533 6691 bc33 07d2 2db4 570e ffb2

block1.n2.weight f4 [4]
1.7244273 3.8633473 2.1552117 3.3946466
00000000: 09ba dc3f 1541 7740 fdee 0940 e441 5940

block1.n2.bias f4 [4]
0.52858675 1.8319567 1.7773229 2.1355827
00000000: 7651 073f 8f7d ea3f 517f e33f 63ad 0840

block1.n2.running_mean f4 [4]
5.157941 -21.546762 -10.029977 -13.212389
00000000: da0d a540 c55f acc1 c97a 20c1 f265 53c1

block1.n2.running_var f4 [4]
197.74648 441.16833 238.96356 444.64273
00000000: 19bf 4543 8c95 dc43 acf6 6e43 4552 de43

block1.conv3.weight f4 [4, 4, 3, 3]
0.12015779 -0.026899379 -0.5749228 -0.16508625 -0.75874543 -0.24288222 -0.47847947 -0.33891067
1.1262646 -0.407432 -0.067923844 -1.7301298 0.29002506 -0.44930723 -1.2435758 -0.542431
-0.70177656 -0.5390998 1.9009181 0.04549642 -0.3522749 -0.9610634 -1.5115104 0.04603528
-0.75416684 -0.82735175 0.23681524 0.11055406 2.349962 0.99641937 1.0456796 0.28521648
-1.0213267 0.47035965 -0.8544532 -0.67814595 -0.44544128 0.9143304 1.0864767 -1.3603749
-1.4045739 -1.2424552 0.61546665 -0.52288336 -0.9634427 -1.4542028 -0.397815 0.46208665
-1.3560865 -1.8718096 -1.8642323 0.2306453 -0.7636783 -1.9088721 0.26737553 -1.1076007
-1.1382892 0.42829233 -0.03866071 0.08224102 2.3759017 -0.39796114 -1.1981894 -0.56593674
-2.2357166 -0.40962994 -0.9404895 -1.8988141 -1.1961635 -1.0609727 -1.0679038 0.0010650866
0.81497467 -0.34221292 -0.17664014 0.40616968 -0.10171748 1.2627629 0.9642802 0.28805947
1.137883 1.5946419 0.3726084 0.63735425 0.1310899 -0.2954624 0.69054073 0.7427838
0.42923775 0.77738297 -1.0031008 -0.78187615 -0.046856456 -0.28433442 -0.16201293 -0.15308964
1.1934195 -0.91800296 -1.3667014 -1.1594021 -1.5576481 -1.058204 -1.7601402 -2.1968448
-0.13459523 -2.3241456 -1.628712 1.7424847 0.74171287 2.074193 -0.70892 -0.10902774
-0.8091967 -0.8720061 -2.1736236 -2.0816905 -0.3401317 -0.9326572 0.93545073 0.68284374
-2.7014835 -0.9345275 -0.457032 -1.0646586 -1.1038191 -0.115532465 1.3397735 -0.13976133
-1.2108576 0.45207113 -0.9294828 0.0070537333 2.0961776 1.8824092 0.16620864 -1.5329806
-0.046310436 1.4593978 0.5567916 0.81733215 0.4121518 -1.3266081 -1.156156 -0.2265636
00000000: 4a15 f63d 165c dcbc 242e 13bf 5f0c 29be
00000010: 243d 42bf 1eb6 78be 43fb f4be b385 adbe
00000020: 7029 903f ed9a d0be a81b 8bbd e574 ddbf
00000030: 2a7e 943e 990b e6be 7e2d 9fbf c2dc 0abf
00000040: a1a7 33bf 7202 0abf 4951 f33f 745a 3a3d
00000050: 605d b4be 4008 76bf 2c79 c1bf 7d8f 3c3d
00000060: 1411 41bf 53cd 53bf b27f 723e 2b6a e23d
00000070: c765 1640 5715 7f3f d4d8 853f e507 923e
00000080: d5ba 82bf fbd2 f03e 72bd 5abf f99a 2dbf
00000090: e110 e4be 8f11 6a3f ab11 8b3f c420 aebf
000000a0: 14c9 b3bf c608 9fbf 398f 1d3f afdb 05bf
000000b0: 2ea4 76bf 5123 babf 68ae cbbe 9f96 ec3e
000000c0: 3e94 adbf 7597 efbf 2a9f eebf 482e 6c3e
000000d0: 6c80 43bf ec55 f4bf 72e5 883e dcc5 8dbf
000000e0: 76b3 91bf 2249 db3e b15a 1ebd fb6d a83d
000000f0: c60e 1840 90c1 cbbe 455e 99bf 3be1 10bf
00000100: fb15 0fc0 04bb d1be ebc3 70bf 570c f3bf
00000110: e31b 99bf f4cd 87bf 12b1 88bf 609a 8b3a
00000120: 2ea2 503f 8836 afbe 27e1 34be 79f5 cf3e
00000130: 4151 d0bd 37a2 a13f 11db 763f 887c 933e
00000140: 26a6 913f 3a1d cc3f 87c6 be3e a629 233f
00000150: 6e3c 063e d946 97be 47c7 303f 1427 3e3f
00000160: 0dc5 db3e 9202 473f 9b65 80bf 0929 48bf
00000170: 8eec 3fbd 4894 91be b8e6 25be 88c3 1cbe
00000180: f8c1 983f 3e02 6bbf 12f0 aebf 4a67 94bf
00000190: 0361 c7bf 3b73 87bf 464c e1bf 1b99 0cc0
000001a0: 55d3 09be cdbe 14c0 a379 d0bf bd09 df3f
000001b0: e5e0 3d3f 94bf 0440 c87b 35bf f049 dfbd
000001c0: 8427 4fbf cb3b 5fbf a61c 0bc0 6b3a 05c0
000001d0: be25 aebe 9fc2 6ebf b379 6f3f d9ce 2e3f
000001e0: 1be5 2cc0 323d 6fbf 1900 eabe bc46 88bf
000001f0: f249 8dbf 499c ecbd b37d ab3f 981d 0fbe
00000200: 62fd 9abf de75 e73e 96f2 6dbf 0123 e73b
00000210: c627 0640 c9f2 f03f 9932 2a3e b538 c4bf
00000220: 03b0 3dbd 8ccd ba3f e589 0e3f ae3c 513f
00000230: 9005 d33e 4bce a9bf ebfc 93bf 4a00 68be

block1.conv3.bias f4 [4]
1.5370965e-07 2.664363e-07 -1.3602872e-07 1.8792246e-08
00000000: 630b 2534 ba0a 8f34 4a0f 12b4 966c a132

block1.n3.weight f4 [4]
3.2267292 2.894877 3.5819 2.928355
00000000: bb82 4e40 aa45 3940 d93d 6540 2b6a 3b40

block1.n3.bias f4 [4]
-0.94827515 -0.26158804 -0.952606 -1.3579868
00000000: 29c2 72bf deee 85be fddd 73bf 83d2 adbf

block1.n3.running_mean f4 [4]
-12.265451 -52.9012 -18.093386 -13.159296
00000000: 4a3f 44c1 d49a 53c2 41bf 90c1 7a8c 52c1

block1.n3.running_var f4 [4]
174.05493 270.38217 210.22935 208.78127
00000000: 100e 2e43 eb30 8743 b73a 5243 01c8 5043

block2.conv1.weight f4 [8, 4, 3, 3]
0.5867708 1.0868475 -0.16191709 0.73191804 -0.10839745 -1.4935251 -1.4656459 -1.6454588
-1.2313634 1.7549927 -0.23331966 0.94642574 0.5936048 0.86061096 -0.2605482 -0.2256098
0.34973323 -0.6460894 -0.7947997 -1.3821827 0.23907167 -0.808363 0.8671023 1.3073695
1.7043899 0.01733033 -0.9356921 1.6060196 -0.66869175 -0.057681296 1.2272763 -0.41771528
-0.32890972 -2.2867587 -0.5120919 -0.42653283 -1.1426055 0.025981938 0.61928415 -1.3614403
-1.6258519 -1.5207822 2.1379108 0.55757564 0.1651292 0.35014933 -0.078706555 0.28474784
-0.6469321 -0.666937 -1.6152775 -1.0116614 -1.5427293 -1.952504 0.08573853 1.422155
2.47344 -1.3339171 0.23642473 0.22521451 -1.6524655 -2.5641787 -3.0249577 -0.07764827
0.7223115 0.43566728 0.7067638 -0.67368066 -0.7419893 1.9041815 0.20452854 -0.5275344
-0.51236194 -0.26545855 0.24908555 0.4543634 1.2817652 0.37261704 1.2205119 -0.73350084
-0.6158468 0.18198712 0.64740646 -0.63352275 -2.3466759 0.038628004 1.7456511 -0.2085835
1.5182688 1.0640613 -1.5475371 -0.41550705 1.1247704 -2.5643992 -0.80012834 2.6162152
-1.9169638 1.0308084 1.537256 -0.099114366 -1.9468482 0.3192053 -1.0192779 -1.1981369
0.94199973 -0.95540994 -1.4576464 0.39772958 -1.0489016 -0.83895373 0.21883377 -0.7495712
-0.32301646 -0.6314385 -1.0459008 -0.32149473 0.41857183 1.3114358 0.53720754 0.9769756
0.4360945 0.6443892 -0.30529553 -1.526444 -1.8424072 -2.6096544 0.94880867 -0.44852796
0.03735454 0.15332508 0.022938196 1.0025585 -1.1241854 -0.2987642 0.60453606 1.3978264
0.2631865 1.1762137 -0.5287442 0.02676993 -0.42582834 -0.9519108 0.08404957 -0.21406098
-0.8557088 0.8539763 1.3916335 -0.2628367 -0.6979797 0.33367482 -0.017879652 -0.53801495
0.0074999183 0.3483994 -2.720969 -1.8971913 2.0461795 1.5651149 0.15313396 -0.03338471
1.4639558 0.9107121 0.012803348 -0.49744895 1.1820699 -1.8396064 -1.1336908 1.0509181
0.6419155 -1.3933594 0.82631916 1.508877 -0.11181837 -1.2918948 2.219868 1.8320556
0.5939746 -0.35407543 0.26444423 0.94957376 -1.1045384 -0.032994304 0.36427 -0.29813963
0.46302477 0.5851336 -0.65142685 0.4361112 0.58618504 -0.41211447 -0.99221915 -1.0954368
-0.8526139 -0.11674228 -0.15362486 -1.7353002 -1.1007385 0.1033244 0.54488534 0.49950898
0.44748563 0.37773675 0.19582066 0.05519812 1.485709 -1.0174147 -0.20850842 -1.3276086
-1.3195733 -1.3866737 -1.3930024 -0.924085 -0.95376384 -1.1400837 -0.37359208 0.029987281
0.3422908 0.48368552 1.1670575 -0.3549787 0.18987584 1.2332757 -0.94753593 -1.5918657
-0.88910186 -0.10721457 -0.026331233 -0.04153106 -0.56971973 0.73183143 1.1217037 -1.0124993
0.8230493 1.781864 -0.50704485 0.8999044 -1.1356726 -1.2350588 0.48932517 0.32433954
-1.7411206 -0.88725585 0.48272294 -0.8057333 -0.5491728 -0.53737354 -1.1249422 -1.055802
0.8355348 0.7423992 -0.65727496 -0.47260684 0.48214695 -0.25476098 -1.0429033 -0.3517653
00000000: 9c36 163f d21d 8b3f 98cd 25be fb5e 3b3f
00000010: 7bff ddbd d52b bfbf 499a bbbf 659e d2bf
00000020: 519d 9dbf 9aa3 e03f 59eb 6ebe f548 723f
00000030: 7cf6 173f 0051 5c3f 9366 85be 4106 67be
00000040: 3c10 b33e 1d66 25bf fe77 4bbf 5deb b0bf
00000050: 34cf 743e e1f0 4ebf 6bfa 5d3f e257 a73f
00000060: 7329 da3f 56f8 8d3c 8489 6fbf 0d92 cd3f
00000070: 622f 2bbf 3943 6cbd 6417 9d3f c7de d5be
00000080: db66 a8be 415a 12c0 7418 03bf 8362 dabe
00000090: e640 92bf 13d8 d43c 6889 1e3f ad43 aebf
000000a0: ea1b d0bf fea8 c2bf 88d3 0840 47bd 0e3f
000000b0: a117 293e c646 b33e e730 a1bd 78ca 913e
000000c0: 589d 25bf 62bc 2abf 6ac1 cebf 1f7e 81bf
000000d0: 2778 c5bf a7eb f9bf af97 af3d 2d09 b63f
000000e0: d74c 1e40 ccbd aabf 5319 723e a29e 663e
000000f0: fd83 d3bf 811b 24c0 e898 41c0 0e06 9fbd
00000100: 68e9 383f c80f df3e 79ee 343f 5676 2cbf
00000110: 03f3 3dbf 38bc f33f ee6f 513e 7f0c 07bf
00000120: 272a 03bf 2fea 87be 4810 7f3e 52a2 e83e
00000130: e210 a43f a9c7 be3e bc39 9c3f b6c6 3bbf
00000140: 23a8 1dbf d55a 3a3e 6ebc 253f 8c2e 22bf
00000150: f02f 16c0 6638 1e3d 7f71 df3f ea96 55be
00000160: a256 c23f 2933 883f b215 c6bf 57bd d4be
00000170: 7af8 8f3f 1e1f 24c0 36d5 4cbf 1270 2740
00000180: 125f f5bf 88f1 833f cec4 c43f 79fc cabd
00000190: 5232 f9bf e16e a33e b377 82bf 8d5c 99bf
000001a0: e526 713f bf95 74bf 2894 babf 36a3 cb3e
000001b0: 6842 86bf acc5 56bf f615 603e e6e3 3fbf
000001c0: 6a62 a5be f4a5 21bf 14e0 85bf f59a a4be
000001d0: 0c4f d63e 21dd a73f 6f86 093f 131b 7a3f
000001e0: c747 df3e b1f6 243f b24f 9cbe 8462 c3bf
000001f0: 00d4 ebbf 9404 27c0 20e5 723f 75a5 e5be
00000200: 1301 193d 4001 1d3e e2e8 bb3c d653 803f
00000210: 4fe5 8fbf 9ff7 98be e0c2 1a3f faeb b23f
00000220: 62c0 863e 2c8e 963f c85b 07bf 9d4c db3c
00000230: 2c06 dabe 6db0 73bf 2e22 ac3d cd32 5bbe
00000240: bb0f 5bbf 319e 5a3f 0c21 b23f 8892 86be
00000250: ccae 32bf 6dd7 aa3e 5978 92bc 59bb 09bf
00000260: e0c1 f53b 6861 b23e 5b24 2ec0 2ad7 f2bf
00000270: 9bf4 0240 af55 c83f 26cf 1c3e 68be 08bd
00000280: e762 bb3f 6e24 693f 22c5 513c a1b1 febe
00000290: 114e 973f 3978 ebbf c81c 91bf 7c84 863f
000002a0: 9354 243f 9a59 b2bf a789 533f e222 c13f
000002b0: 0801 e5bd cf5c a5bf 5112 0e40 cc80 ea3f
000002c0: b80e 183f 6049 b5be 3c65 873e 4417 733f
000002d0: 8461 8dbf 0925 07bd 9981 ba3e c2a5 98be
000002e0: 9511 ed3e 51cb 153f e9c3 26bf f849 df3e
000002f0: 3910 163f ab00 d3be 1302 7ebf 4637 8cbf
00000300: e844 5abf 9416 efbd d64f 1dbe 511e debf
00000310: 00e5 8cbf be9b d33d 9b7d 0b3f a4bf ff3e
00000320: d61c e53e b666 c13e 3685 483e 6d17 623d
00000330: b62b be3f a53a 82bf 3b83 55be 14ef a9bf
00000340: c7e7 a8bf 867e b1bf e74d b2bf d690 6cbf
00000350: de29 74bf 43ee 91bf 7647 bfbe e3a7 f53c
00000360: bd40 af3e a1a5 f73e 2462 953f c5bf b5be
00000370: d06e 423e fadb 9d3f b791 72bf 41c2 cbbf
00000380: 2e9c 63bf 5093 dbbd 99b4 d7bc 791c 2abd
00000390: 27d9 11bf 4e59 3b3f fd93 8f3f 9499 81bf
000003a0: 5cb3 523f 1f14 e43f b1cd 01bf 2260 663f
000003b0: b85d 91bf 6816 9ebf d488 fa3e d50f a63e
000003c0: 0add debf 3323 63bf 7627 f73e 8a44 4ebf
000003d0: 9796 0cbf 5091 09bf 1bfe 8fbf 8524 87bf
000003e0: 9ce5 553f e00d 3e3f 2c43 28bf 86f9 f1be
000003f0: f7db f63e 0870 82be db7d 85bf 951a b4be

block2.conv1.bias f4 [8]
-1.0128864e-07 1.3815125e-07 4.9683056e-08 8.954456e-08 1.1296231e-07 -1.1567209e-08 4.6973074e-08 -1.4404749e-07
00000000: 0584 d9b3 ba56 1434 1963 5533 a44b c033
00000010: b095 f233 20b9 46b2 71bf 4933 79ab 1ab4

block2.n1.weight f4 [8]
2.0075786 3.7922997 3.1178467 2.646331 1.9630156 2.6397004 3.7781968 3.308563
00000000: 2b7c 0040 0ab5 7240 cd8a 4740 7d5d 2940
00000010: 1844 fb3f daf0 2840 facd 7140 7fbf 5340

block2.n1.bias f4 [8]
1.0934874 0.5871994 -0.25598967 0.18698415 0.6510073 2.2343335 -0.88351005 -1.4752749
00000000: 65f7 8b3f b352 163f 1411 83be c678 3f3e
00000010: 6aa8 263f 52ff 0e40 b72d 62bf cfd5 bcbf

block2.n1.running_mean f4 [8]
-1.7732104 -16.717705 -1.9367362 -6.9301314 6.879027 -12.503478 -4.5350304 -1.1666958
00000000: 8ff8 e2bf dcbd 85c1 f9e6 f7bf a3c3 ddc0
00000010: fd20 dc40 3f0e 48c1 f81e 91c0 4a56 95bf

block2.n1.running_var f4 [8]
478.5124 760.2234 762.0602 361.9662 477.1899 463.7243 239.4876 447.74597
00000000: 9641 ef43 4c0e 3e44 da83 3e44 acfb b443
00000010: 4f98 ee43 b6dc e743 d37c 6f43 7cdf df43

block2.conv2.weight f4 [8, 8, 3, 3]
-1.0316734 -1.1078125 -0.1315221 -0.85911024 0.054904494 0.6587725 0.18837094 0.80025977
0.3209594 1.0414455 0.18976298 -1.7555991 -0.6930979 -1.4635726 -0.42804557 0.6386368
1.1621542 0.94237024 -1.2935997 -2.1951878 1.0120136 -0.19663037 -0.22704776 1.066637
-0.56131136 -1.617867 -1.5749918 -0.26190513 -0.868772 -0.70683783 -0.66537404 -0.093650684
0.8395818 0.7790742 0.61881936 -0.07764487 -0.30712706 -0.2959022 -0.59741294 -0.57081
-0.18396683 0.3420176 1.7995342 1.5483317 1.3426796 0.5100888 1.0798736 0.34642085
-1.0083077 -0.52874357 -0.9971291 -0.8930333 -0.9608099 -0.88769174 -0.40875697 -1.1027771
-0.08921227 0.76332927 0.85817116 -0.07609994 -0.1136029 0.003257652 -0.9279053 -0.8000288
-1.5114244 -1.8239653 -0.5156381 -0.6522084 -0.4501696 0.08807438 0.11076322 1.3112537
-0.36358756 0.029083338 -1.3045715 -0.17941971 -0.6013897 -1.1730846 -0.4613313 -0.07255206
-0.20302208 0.1982844 0.61853915 1.167747 1.8705237 1.4062924 0.71375287 -0.4789574
-0.47162315 -0.473906 -0.906759 -0.5085088 -1.1455219 -1.7666428 -1.1946796 -1.8463757
-0.37003434 0.09027303 -1.2962393 -0.27658617 0.09843063 -0.78236824 0.11382497 -0.26763594
-0.5248077 -0.16636512 -0.3585248 -0.27607933 0.19176103 -0.4777907 -0.15657522 0.116616674
-0.6586894 -1.1084503 0.4995066 -0.0503907 -0.16458648 0.1666727 0.41136098 0.500533
-0.31968448 0.50891805 0.38237062 0.656229 -0.08319145 -0.9164693 -0.20754601 -0.5405621
-0.25517547 -0.5748019 -0.4799812 -0.69154096 -0.061589036 0.7417771 0.21433404 -0.0010023443
0.8122118 0.77656555 0.42457026 -0.031787205 -0.9798816 -1.2712381 -1.1128719 -0.9457388
0.098275796 0.36896068 0.11486771 -0.7329763 0.009801728 -0.7468552 -0.6932339 -0.999231
-1.1377437 0.80513066 -0.016874282 -0.8478347 0.0081171775 0.26102608 0.7494703 -0.070851035
0.27507308 -1.0501347 0.4596982 0.73362094 0.6347565 -0.53739566 0.1708168 -0.42635354
-1.0673765 -0.7972017 -0.247252 0.16861056 0.27245003 0.9449013 -0.22333355 0.64876837
0.81438476 0.73487633 -0.07469894 -0.45083904 -0.3169327 0.021998214 0.527931 -0.98174864
0.2732755 0.9628166 -0.6110393 -0.3690286 -0.11111993 -0.0042502102 -0.35999638 -0.98538744
-0.23404695 -0.08604867 -0.6132914 0.4452618 0.49444416 0.62561953 1.0053006 1.005738
0.69984245 0.31606716 0.27315724 0.12603663 -1.3851829 -1.7429067 -1.3345578 0.1113709
-0.45056987 -0.36121845 -0.8907183 -0.65692383 0.23459825 -1.0169398 -1.1019135 -0.85565275
0.40820816 -0.14171036 0.9271444 0.9426733 -0.17947663 0.37684834 -1.2492914 -0.6462761
0.8076805 0.2077532 -0.16286047 -0.0725091 -1.3548107 -1.2492837 -1.0858358 -0.24719028
-0.9956999 -0.9249093 1.073401 0.5118939 0.26187384 0.3841551 -1.099568 -0.93687916
-0.8801471 -0.36662573 0.17014627 -0.38182735 -0.69142234 -0.8263762 -0.4403628 -1.1061256
-1.3405036 -0.037122402 -0.92002696 -0.9623285 1.0409771 1.7917734 1.5242088 0.8215076
00000000: e00d 84bf cdcc 8dbf bbad 06be a6ee 5bbf
00000010: 89e3 603d 51a5 283f 50e4 403e d3dd 4c3f
00000020: ca54 a43e 164e 853f 3a51 423e 79b7 e0bf
00000030: dd6e 31bf 5956 bbbf ca28 dbbe b47d 233f
00000040: 78c1 943f 2d3f 713f ad94 a5bf f57d 0cc0
00000050: a989 813f 7959 49be 357f 68be 9087 883f
00000060: 1ab2 0fbf 4416 cfbf 5599 c9bf 6e18 86be
00000070: d767 5ebf 53f3 34bf f455 2abf eecb bfbd
00000080: d5ee 563f 6871 473f f26a 1e3f 4604 9fbd
00000090: c23f 9dbe 7e80 97be 0ef0 18bf 9b20 12bf
000000a0: cd61 3cbe ee1c af3e 2357 e63f bc2f c63f
000000b0: eddc ab3f 2e95 023f 4c39 8a3f 135e b13e
000000c0: 3a10 81bf bd5b 07bf da43 7fbf d59d 64bf
000000d0: a3f7 75bf c43f 63bf 9848 d1be cd27 8dbf
000000e0: ecb4 b6bd 8c69 433f 1bb1 5b3f 49da 9bbd
000000f0: a3a8 e8bd 557e 553b 348b 6dbf b0ce 4cbf
00000100: 5b76 c1bf b277 e9bf dc00 04bf 21f7 26bf
00000110: a17c e6be 5760 b43d d4d7 e23d 29d7 a73f
00000120: 2628 babe 2e40 ee3c 33fc a6bf cdb9 37be
00000130: adf4 19bf a327 96bf 9e33 ecbe 2d96 94bd
00000140: 05e5 4fbe 110b 4b3e 9558 1e3f bc78 953f
00000150: 526d ef3f 6401 b43f 82b8 363f e839 f5be
00000160: 9778 f1be cfa3 f2be 5c21 68bf a22d 02bf
00000170: 76a0 92bf 5a21 e2bf 43eb 98bf 0a56 ecbf
00000180: 2475 bdbe 11e1 b83d 2beb a5bf b49c 8dbe
00000190: 0096 c93d 4949 48bf 111d e93d 9407 89be
000001a0: cc59 06bf 9e5b 2abe 9090 b7be 455a 8dbe
000001b0: 015d 443e fca0 f4be 4155 20be b9d4 ee3d
000001c0: de9f 28bf b3e1 8dbf 54bf ff3e 7b66 4ebd
000001d0: 5c89 28be 40ac 2a3e e89d d23e ee22 003f
000001e0: afad a3be 7448 023f 15c6 c33e a0fe 273f
000001f0: 4760 aabd bb9d 6abf f186 54be 4762 0abf
00000200: 5ca6 82be 3826 13bf 19c0 f5be d408 31bf
00000210: c944 7cbd 1be5 3d3f 627a 5b3e 1861 83ba
00000220: 1ded 4f3f 00cd 463f 4661 d93e 4d33 02bd
00000230: 85d9 7abf eeb7 a2bf 9672 8ebf f01b 72bf
00000240: d244 c93d 6ae8 bc3e c33f eb3d 56a4 3bbf
00000250: 6d97 203c e731 3fbf c777 31bf 9acd 7fbf
00000260: 96a1 91bf 0b1d 4e3f ef3b 8abc b20b 59bf
00000270: e9fd 043c 36a5 853e 49dd 3f3f 591a 91bd
00000280: 61d6 8c3e d06a 86bf 905d eb3e 95ce 3b3f
00000290: 677f 223f c392 09bf 99ea 2e3e 034b dabe
000002a0: cb9f 88bf 6915 4cbf a12f 7dbe 3fa8 2c3e
000002b0: 927e 8b3e 0de5 713f 8db1 64be af15 263f
000002c0: 857b 503f db20 3c3f c2fb 98bd 60d4 e6be
000002d0: 0145 a2be 9935 b43c 7c26 073f e153 7bbf
000002e0: c4ea 8b3e 267b 763f 126d 1cbf 51f1 bcbe
000002f0: d992 e3bd 5945 8bbb 7251 b8be 5a42 7cbf
00000300: 01aa 6fbe 493a b0bd aa00 1dbf 5bf9 e33e
00000310: c927 fd3e 9a28 203f b1ad 803f 06bc 803f
00000320: e028 333f 8ed3 a13e 44db 8b3e bf0f 013e
00000330: ac4d b1bf 9117 dfbf cad2 aabf 6d16 e43d
00000340: 18b1 e6be a0f1 b8be 1d06 64bf 292c 28bf
00000350: 863a 703e 152b 82bf 800b 8dbf 0f0c 5bbf
00000360: a900 d13e 851c 11be 5659 6d3f 0a53 713f
00000370: b9c8 37be 44f2 c03e c8e8 9fbf 5a72 25bf
00000380: 26c4 4e3f 41bd 543e e5c4 26be a77f 94bd
00000390: 706a adbf 87e8 9fbf abfc 8abf 731f 7dbe
000003a0: 30e6 7ebf dbc6 6cbf 3465 893f 7b0b 033f
000003b0: 5414 863e faaf c43e a5be 8cbf 50d7 6fbf
000003c0: 5251 61bf 5eb6 bbbe d33a 2e3e e07e c3be
000003d0: 0e01 31bf 648d 53bf 3c77 e1be 8695 8dbf
000003e0: 9f95 abbf a90d 18bd e386 6bbf 295b 76bf
000003f0: bd3e 853f d558 e53f 4619 c33f 524e 523f

block2.conv2.bias f4 [8]
-1.2675494e-07 2.9050703e-08 -6.213543e-08 5.7192462e-08 4.8839013e-08 -2.256964e-07 7.221216e-08 -2.4834125e-07
00000000: 221a 08b4 2c8b f932 506f 85b3 c7a3 7533
00000010: 10c3 5133 f456 72b4 0e13 9b33 c353 85b4

block2.n2.weight f4 [8]
2.7672865 3.506535 3.2159138 2.2584417 2.8921301 3.6031969 2.0939834 2.9646287
00000000: 391b 3140 126b 6040 88d1 4d40 4f8a 1040
00000010: a918 3940 c79a 6640 d303 0640 7abc 3d40

block2.n2.bias f4 [8]
0.14873748 1.867902 0.50011575 -0.7539184 -0.8972209 -0.83121574 0.5556228 -0.45025948
00000000: a34e 183e 6a17 ef3f 9607 003f cc00 41bf
00000010: 45b0 65bf 8eca 54bf 4c3d 0e3f 6988 e6be

block2.n2.running_mean f4 [8]
-15.84693 -8.667127 -8.946753 -27.701744 -14.505852 -13.378746 -16.424377 -16.241816
00000000: 068d 7dc1 8dac 0ac1 e625 0fc1 2c9d ddc1
00000010: f817 68c1 580f 56c1 2065 83c1 3def 81c1

block2.n2.running_var f4 [8]
361.83575 593.5205 185.4053 285.5275 186.49796 189.17747 294.35358 180.24887
00000000: faea b443 5061 1444 c267 3943 85c3 8e43
00000010: 7a7f 3a43 6f2d 3d43 422d 9343 b63f 3443

block2.conv3.weight f4 [8, 8, 3, 3]
0.6988294 0.8565242 0.155919 -0.18179414 -1.0872425 -1.2436162 -1.2290126 0.10419713
1.0239382 0.41166347 1.0926108 0.63896376 0.19186999 0.19305569 -0.81633234 0.58412623
-0.7092952 -2.035227 0.23235351 0.5679203 0.46115163 1.7825724 -0.25191614 -1.1432976
-0.7613074 -1.0335318 -0.4587413 -0.9588296 -0.061650284 1.1739289 0.5523368 1.0499833
-0.17209281 0.75903636 -0.400213 -1.1566386 -0.08947334 -0.53572166 -0.011695126 -0.57261246
-0.68354064 -1.1596998 -0.6472723 -1.1142046 -0.0019327918 0.11330875 0.13746431 1.0518034
0.36802498 0.22472875 0.03328255 0.9818816 0.08076264 -0.5013289 -0.21781984 -0.034618847
-0.12382182 -0.34949127 0.35187614 0.79254854 0.66923577 0.43046504 -0.8786283 -0.37823847
-0.6282402 -0.67670614 -0.49909106 -0.15982702 1.8384087 1.812138 1.4658469 0.37061545
1.4975189 1.312225 0.16669129 1.593669 0.53283405 -0.76537144 -0.0066943155 -0.0873586
-0.664731 -1.1681148 -0.48100877 0.10417813 -1.8681552 -0.6961802 0.42810822 -0.68099284
0.99059594 2.0141962 -0.5867485 -0.09353065 -0.04525273 -0.5620136 0.73034424 0.34456792
0.4787745 -0.34175134 -0.5723312 0.13881066 0.49907058 -0.23844944 0.27832866 -0.20380042
0.041235782 0.24119812 -0.90386295 -1.378829 -0.34927115 0.10418594 0.36424145 1.3620553
0.8797679 0.6371146 0.22050893 -0.1948689 -1.2282965 0.042175982 -0.20995115 0.08729975
-0.49158725 -0.09458572 -0.26683888 0.044998236 -0.0917865 -0.30315447 -0.3430428 0.4673302
0.009938667 0.352968 0.98577315 1.337157 0.6821163 0.47027475 0.053538542 0.39108592
0.41355777 -0.09113259 -0.97504723 -1.3203123 -1.076403 0.09700392 -0.6423773 -0.120359935
-0.30749464 -0.37193522 1.1063749 -0.4430878 -0.7258304 -0.35056072 0.8061484 -0.5353406
0.10900129 0.34594345 -0.94595206 0.088097915 -1.0746605 -2.3535776 -0.8778869 -0.6860366
-1.9490381 -0.21655233 -0.16155966 -1.0369995 -0.44034636 -1.0444264 -0.8146417 -0.3988445
-0.87664956 -1.1209496 -0.43384773 -0.11309494 0.31218553 0.47169712 0.3821352 0.035851665
0.51280314 0.41876066 -0.6191153 -0.9549318 0.20305234 0.42724675 1.1211925 0.25236544
0.41633222 1.5834335 -0.17822683 1.4997395 0.22481838 -0.71401 -1.3656251 -1.1253685
-1.6545836 -1.8851984 -0.6634609 -1.3826396 -0.87195665 -0.058215577 0.2829524 0.9999995
1.2674124 -0.44945407 -0.11412616 0.48137468 -0.7421464 -1.006711 -0.60032654 -0.7852625
-0.90516704 -0.79581803 -0.060080282 -0.059777174 -0.7272318 1.5624932 0.6718316 0.40521806
-0.17507978 0.50108266 -0.7295807 1.1598188 0.79700696 -0.06503402 -0.18139745 -0.43787855
-0.44764808 0.3380967 1.0733631 1.0216166 -0.4726667 0.56700116 0.97871315 -0.8834152
0.121428914 1.0850683 -0.9915317 -0.52902514 -0.73518866 0.9593743 0.02051604 -0.67544514
1.0592237 0.32912952 -0.2859765 1.2530938 1.521431 -0.014082667 0.6441667 0.12437129
-1.3990372 0.8934333 0.5870523 -0.7456022 1.0408919 0.33491024 0.018894853 -0.47885892
00000000: 7ce6 323f 2c45 5b3f 3ba9 1f3e 3e28 3abe
00000010: c32a 8bbf d12e 9fbf 4950 9dbf 4e65 d53d
00000020: 6810 833f 8ec5 d23e acda 8b3f 2193 233f
00000030: 9179 443e 64b0 453e 28fb 50bf 4c89 153f
00000040: 5f94 35bf 2941 02c0 14ee 6d3e 3a63 113f
00000050: 111c ec3e 552b e43f 27fb 80be 9357 92bf
00000060: 0be5 42bf c54a 84bf 24e0 eabe db75 75bf
00000070: 0285 7cbd 4d43 963f f265 0d3f da65 863f
00000080: 1939 30be 3550 423f b8e8 ccbe bc0c 94bf
00000090: cc3d b7bd 0e25 09bf ea9c 3fbc bb96 12bf
000000a0: 85fc 2ebf 0b71 94bf a3b3 25bf 429e 8ebf
000000b0: bb55 fdba 6b0e e83d 72c3 0c3e 7ea1 863f
000000c0: c56d bc3e 4b1f 663e 4853 083d 985c 7b3f
000000d0: e266 a53d 1757 00bf 2a0c 5fbe 7ecc 0dbd
000000e0: 4b96 fdbd 85f0 b2be 1c29 b43e 76e4 4a3f
000000f0: 0953 2b3f ea65 dc3e c9ed 60bf 79a8 c1be
00000100: 5ad4 20bf 9d3c 2dbf dd88 ffbe b2a9 23be
00000110: fa50 eb3f 23f4 e73f dfa0 bb3f 4fc1 bd3e
00000120: b3ae bf3f fdf6 a73f 1fb1 2a3e 59fd cb3f
00000130: d067 083f 62ef 43bf fd5b dbbb 11e9 b2bd
00000140: d02b 2abf c984 95bf c846 f6be 585b d53d
00000150: b61f efbf de38 32bf 0031 db3e 8c55 2ebf
00000160: b297 7d3f 97e8 0040 2635 16bf ff8c bfbd
00000170: ed5a 39bd 20e0 0fbf d7f7 3a3f 356b b03e
00000180: ee21 f53e 08fa aebe 4c84 12bf 6224 0e3e
00000190: 2e86 ff3e 172c 74be 1881 8e3e 0fb1 50be
000001a0: dae6 283d a4fc 763e 9063 67bf 787d b0bf
000001b0: abd3 b2be 705f d53d db7d ba3e d457 ae3f
000001c0: 7838 613f f119 233f 18cd 613e b78b 47be
000001d0: d238 9dbf b9c0 2c3d 6ffd 56be 36ca b23d
000001e0: 53b1 fbbe 28b6 c1bd 1b9f 88be 1250 383d
000001f0: 8ffa bbbd 1037 9bbe 4ea3 afbe e745 ef3e
00000200: cad5 223c 39b8 b43e a15b 7c3f f627 ab3f
00000210: 2d9f 2e3f dac7 f03e 3b4b 5b3d 6a3c c83e
00000220: d8bd d33e b9a3 babd b29c 79bf feff a8bf
00000230: 93c7 89bf fea9 c63d d772 24bf 457f f6bd
00000240: f06f 9dbe 4b6e bebe b19d 8d3f 67dc e2be
00000250: 05d0 39bf b27c b3be be5f 4e3f 150c 09bf
00000260: 113c df3d 801f b13e ea29 72bf ae6c b43d
00000270: 7a8e 89bf 04a1 16c0 32bd 60bf 18a0 2fbf
00000280: 157a f9bf e5bf 5dbe e56f 25be 66bc 84bf
00000290: 1475 e1be c4af 85bf 5c8c 50bf 5935 ccbe
000002a0: 1b6c 60bf 477b 8fbf 4a21 debe 529e e7bd
000002b0: c8d6 9f3e 4982 f13e 3aa7 c33e 32d9 123d
000002c0: 1147 033f cc67 d63e 577e 1ebf 6976 74bf
000002d0: f4ec 4f3e 16c0 da3e 3c83 8f3f 0b36 813e
000002e0: 7f29 d53e f3ad ca3f 1881 36be 77f7 bf3f
000002f0: ca36 663e 5cc9 36bf cecc aebf 130c 90bf
00000300: 65c9 d3bf 2e4e f1bf 93d8 29bf 56fa b0bf
00000310: 8d38 5fbf 7573 6ebd 23df 903e f8ff 7f3f
00000320: 923a a23f d81e e6be faba e9bd be76 f63e
00000330: 4efd 3dbf e8db 80bf 00af 19bf f706 49bf
00000340: 07b9 67bf bbba 4bbf be16 76bd e9d8 74bd
00000350: dd2b 3abf c7ff c73f 28fd 2b3f be78 cf3e
00000360: 1d48 33be f446 003f cdc5 3abf f174 943f
00000370: a608 4c3f 8e30 85bd 41c0 39be 9e31 e0be
00000380: 2132 e5be 031b ad3e f663 893f 55c4 823f
00000390: 5f01 f2be fd26 113f f28c 7a3f 8027 62bf
000003a0: b9af f83d 85e3 8a3f 06d5 7dbf 316e 07bf
000003b0: 5335 3cbf 8e99 753f 4111 a83c f9e9 2cbf
000003c0: a494 873f aa83 a83e 836b 92be 6165 a03f
000003d0: 40be c23f fdba 66bc 1ce8 243f 60b6 fe3d
000003e0: a713 b3bf 0bb8 643f 0f49 163f c9df 3ebf
000003f0: f23b 853f 5b79 ab3e 61c9 9a3c ff2c f5be

block2.conv3.bias f4 [8]
-1.5177515e-09 6.432105e-08 -2.5926402e-08 -1.7721941e-08 1.3316934e-07 -4.611742e-08 -4.1460005e-08 8.778207e-08
00000000: 2299 d0b0 df20 8a33 c3b4 deb2 f63a 98b2
00000010: 4ffd 0e34 a412 46b3 c211 32b3 b482 bc33

block2.n3.weight f4 [8]
3.3456047 2.926119 3.177389 2.899498 3.2603583 3.0147226 2.8042264 3.5402298
00000000: 631e 5640 8945 3b40 575a 4b40 6091 3940
00000010: b6a9 5040 37f1 4040 7278 3340 2093 6240

block2.n3.bias f4 [8]
-1.8240454 -0.37631628 1.0227176 -1.1740301 -0.4088528 -0.97686815 0.15210642 -1.6231812
00000000: 527a e9bf 87ac c0be 69e8 823f 9e46 96bf
00000010: 2755 d1be 0814 7abf c9c1 1b3e 67c4 cfbf

block2.n3.running_mean f4 [8]
-1.2288496 -0.052964646 -34.14702 18.971308 -1.3001051 -0.42095804 -2.3229353 -6.422604
00000000: f24a 9dbf 75f1 58bd 8c96 08c2 3dc5 9741
00000010: d869 a6bf d087 d7be f9aa 14c0 f985 cdc0

block2.n3.running_var f4 [8]
207.0874 299.72394 470.9845 211.59814 157.12422 336.5436 302.79178 235.07214
00000000: 6016 4f43 aadc 9543 047e eb43 2099 5343
00000010: cd1f 1d43 9545 a843 5965 9743 7812 6b43

block3.conv1.weight f4 [8, 8, 3, 3]
0.9109103 0.8696662 0.025911 1.5588181 0.40095127 -1.009429 1.1849803 0.6690514
0.06164874 0.8223238 0.9635823 0.046878107 -0.3092043 -0.9268371 -0.71439946 0.790866
-0.959229 -0.28127578 -0.9505177 -2.0654283 -2.001884 -0.4629202 0.19747306 -0.66872174
1.095581 0.30740705 -1.1430982 0.9796639 2.0540543 0.36549422 1.0352117 0.76209295
-0.9474048 -0.19123888 0.36370373 0.77169645 0.9604943 -0.5487669 -1.0739309 0.98140913
-0.9221761 -1.6324716 0.5001038 -0.27492246 0.07685084 0.9265957 0.78268814 -0.6784375
1.9699943 1.1060101 -0.65248334 -0.23018786 0.47315478 -0.41712058 -0.29539278 -0.2874975
-0.38308057 0.033687957 -0.015074514 -0.96331525 -1.4262607 -1.2012683 -0.98499393 -0.93115985
-1.3681005 -0.54600763 -0.6642312 -0.44510683 -0.40372714 0.19712995 -0.82565385 0.5871527
0.8079611 0.17696665 -0.36373675 -1.5054735 -0.95188564 0.45542324 -0.054001868 -0.32142106
-1.2906808 -1.0001961 0.7529736 0.82114035 -1.6143343 -1.0762824 -0.120673396 -0.6453373
0.22619514 1.0366397 0.96275675 0.90713185 0.9520773 2.130876 -0.8974337 0.42318127
0.5665328 -0.8978314 0.3815888 -0.3387158 -0.6390899 0.52500635 0.9065744 0.47282472
0.89247817 0.59438765 0.3525784 -1.058432 0.8114431 0.23306386 0.2565547 -2.7016141
-1.6964055 0.5472622 -1.494895 -0.5927479 -0.19978403 -0.16232617 -0.49112725 0.9387903
2.4913845 1.1396539 0.21608701 1.2287439 -0.45235252 -2.0457683 -1.6021897 -1.0018995
-0.8608338 -1.5167305 -0.43007296 -0.9388977 0.96625096 0.61821365 1.2103791 0.12321199
1.7072299 0.70160145 0.6217515 1.9067309 1.5433581 -0.29733765 0.8944665 -0.22760154
-0.54084384 0.4039368 -0.99762064 1.6588216 0.8768142 -0.68197757 0.27394602 0.36189502
0.30163997 2.0937366 2.9966388 1.6523632 -0.64299583 0.89895815 0.15333869 0.8981959
0.14368492 -2.004316 1.6221735 -1.260822 -2.4467552 1.0458508 -0.46126097 -2.159571
0.26618972 -0.07439997 -0.6342134 -1.6970403 1.0095763 0.45853934 0.7705485 1.3818914
-0.39306736 1.2204059 -0.11897768 -0.36757642 -0.68326324 0.84999865 0.72747004 -0.5876108
1.0070558 0.7871604 0.32309556 -0.017855722 -0.957 -0.5636813 0.010312369 -0.8022615
1.4704281 0.11694021 -1.3023697 -0.7666699 -0.36984634 0.039934076 -1.5222133 1.3630078
0.9391717 0.007599756 1.0904852 -0.120810494 -0.45062232 1.0355967 0.543437 0.7613698
0.7401193 -0.018406428 0.05898898 -0.13299547 -1.1128901 1.0350524 -1.0617552 -1.0975144
-0.5624324 -0.04983451 -0.1170953 -0.45484823 0.0087812 0.1584145 -0.039906394 -0.107569255
-0.58985 0.5574259 0.7437147 -0.37984517 -0.16466938 -1.3058878 -1.24527 0.32003722
0.6097754 1.7030159 1.033653 0.10968446 0.17799364 -1.3173922 -1.488605 -0.6301795
-1.1520692 -0.33438104 0.6471328 -1.1674769 -1.3296477 0.13240738 0.24416187 0.0028647557
-1.3036691 0.93489146 1.6096509 -0.35373247 -0.3367289 -0.7018065 -0.7733975 1.4017785
00000000: 6b31 693f 72a2 5e3f 4e43 d43c 5a87 c73f
00000010: 7c49 cd3e f834 81bf 6fad 973f f446 2b3f
00000020: 6483 7c3d d083 523f 54ad 763f 4203 403d
00000030: 0750 9ebe 3245 6dbf e2e2 36bf 3276 4a3f
00000040: 0890 75bf 6103 90be 2155 73bf fa2f 04c0
00000050: de1e 00c0 e003 edbe 6136 4a3e 5931 2bbf
00000060: 003c 8c3f 7564 9d3e 0b51 92bf 41cb 7a3f
00000070: a075 0340 0f22 bb3e d181 843f 8618 433f
00000080: 1f89 72bf 20d4 43be 6037 ba3e e68d 453f
00000090: f4e2 753f fd7b 0cbf 9176 89bf a13d 7b3f
000000a0: bc13 6cbf d4f4 d0bf cd06 003f a3c2 8cbe
000000b0: f963 9d3d 6035 6d3f 405e 483f 14ae 2dbf
000000c0: c628 fc3f bd91 8d3f 2609 27bf 5eb6 6bbe
000000d0: 5841 f23e d490 d5be b93d 97be df32 93be
000000e0: 2323 c4be 62fc 093d 18fb 76bc d49b 76bf
000000f0: b68f b6bf 29c3 99bf 9028 7cbf 7e60 6ebf
00000100: eb1d afbf 28c7 0bbf 0e0b 2abf 0be5 e3be
00000110: 53b5 cebe 6fdc 493e 0d5e 53bf a44f 163f
00000120: 8ad6 4e3f bf36 353e b43b babe 5bb3 c0bf
00000130: c7ae 73bf 3c2d e93e 1031 5dbd 4d91 a4be
00000140: 0735 a5bf 6d06 80bf e1c2 403f 4136 523f
00000150: 82a2 cebf 9fc3 89bf 9d23 f7bd d334 25bf
00000160: b39f 673e 9cb0 843f 3a77 763f cb39 683f
00000170: 57bb 733f 4660 0840 37be 65bf 37ab d83e
00000180: 4b08 113f 47d8 65bf 9b5f c33e 286c adbe
00000190: 659b 23bf d166 063f 4315 683f 1516 f23e
000001a0: 7379 643f ca29 183f 2885 b43e b37a 87bf
000001b0: bcba 4f3f 4ba8 6e3e 235b 833e 3fe7 2cc0
000001c0: d123 d9bf 6019 0c3f b858 bfbf 54be 17bf
000001d0: 2f94 4cbe d538 26be 0875 fbbe 9054 703f
000001e0: d872 1f40 2ee0 913f ea45 5d3e 7b47 9d3f
000001f0: c09a e7be deed 02c0 8d14 cdbf 3e3e 80bf
00000200: 9b5f 5cbf 3a24 c2bf 8632 dcbe 9a5b 70bf
00000210: 395c 773f 4043 1e3f b4ed 9a3f 9156 fc3d
00000220: 8286 da3f 279c 333f 1b2b 1f3f c20f f43f
00000230: c28c c53f a43c 98be c2fb 643f 6110 69be
00000240: be74 0abf ced0 ce3e 1164 7fbf 4454 d43f
00000250: e576 603f 1596 2ebf a742 8c3e 4e4a b93e
00000260: 8e70 9a3e c8ff 0540 eec8 3f40 a380 d33f
00000270: 609b 24bf 1f22 663f d104 1d3e 2bf0 653f
00000280: 2422 133e b746 00c0 62a3 cf3f 9e62 a1bf
00000290: a397 1cc0 70de 853f 662a ecbe 6936 0ac0
000002a0: 054a 883e 035f 98bd cf5b 22bf 9e38 d9bf
000002b0: cc39 813f abc5 ea3e ab42 453f d1e1 b03f
000002c0: 2040 c9be 4336 9c3f 92aa f3bd fa32 bcbe
000002d0: 57ea 2ebf 8399 593f 7a3b 3a3f a96d 16bf
000002e0: 34e7 803f 5883 493f c86c a53e 2a46 92bc
000002f0: f4fd 74bf 6b4d 10bf 36f5 283c 0261 4dbf
00000300: fd36 bc3f 597e ef3d 0db4 a6bf 7b44 44bf
00000310: 805c bdbe ea91 233d e3d7 c2bf 0a77 ae3f
00000320: 8e6d 703f 6007 f93b 0595 8b3f 7e6b f7bd
00000330: f8b7 e6be 6f8e 843f b01e 0b3f 22e9 423f
00000340: 7578 3d3f 14c9 96bc 6e9e 713d f72f 08be
00000350: 2f73 8ebf 997c 843f 98e7 87bf 5a7b 8cbf
00000360: 92fb 0fbf 451f 4cbd a9cf efbd dee1 e8be
00000370: 06df 0f3c 6937 223e e374 23bd 454d dcbd
00000380: 6900 17bf 77b3 0e3f 1664 3e3f 117b c2be
00000390: 179f 28be 5527 a7bf 0265 9fbf ebdb a33e
000003a0: 3e1a 1c3f 6dfc d93f be4e 843f 3fa2 e03d
000003b0: f743 363e 4fa0 a8bf 9c8a bebf 7253 21bf
000003c0: 0177 93bf fe33 abbe 7faa 253f e26f 95bf
000003d0: e531 aabf cd95 073e 9205 7a3e a0be 3b3b
000003e0: a1de a6bf 0c55 6f3f 0a09 ce3f 6c1c b5be
000003f0: bb67 acbe 97a9 33bf 61fd 45bf 7a6d b33f

block3.conv1.bias f4 [8]
-2.0463827e-07 1.12881345e-07 4.0483023e-08 -4.502277e-08 -1.0433405e-07 -4.0618094e-08 -2.9859887e-08 -1.2275265e-07
00000000: 8aba 5bb4 2d69 f233 8edf 2d33 0f5f 41b3
00000010: 400e e0b3 1174 2eb3 4b3f 00b3 fecd 03b4

block3.n1.weight f4 [8]
4.3420906 3.2417333 3.5946949 3.4285066 4.1141458 3.9943209 4.6626472 3.1751912
00000000: 68f2 8a40 8f78 4f40 7b0f 6640 a76c 5b40
00000010: 15a7 8340 f4a2 7f40 6834 9540 5536 4b40

block3.n1.bias f4 [8]
-0.3172775 -0.35381532 -0.5142681 0.3131475 -0.19208659 -0.97359854 0.21622564 -0.26309276
00000000: 3272 a2be 4827 b5be 13a7 03bf de54 a03e
00000010: 59b2 44be c13d 79bf 416a 5d3e 18b4 86be

block3.n1.running_mean f4 [8]
-16.338259 6.3424306 8.673945 -6.743968 -8.6191845 32.49101 -28.294151 12.394288
00000000: c1b4 82c1 31f5 ca40 7bc8 0a41 96ce d7c0
00000010: 2ee8 09c1 cbf6 0142 6c5a e2c1 014f 4641

block3.n1.running_var f4 [8]
1273.7444 1057.488 1233.1936 569.89996 1018.15784 1513.7158 926.90283 870.3537
00000000: d237 9f44 9e2f 8444 3226 9a44 9979 0e44
00000010: 1a8a 7e44 e836 bd44 c8b9 6744 a396 5944

block3.conv2.weight f4 [8, 8, 3, 3]
-1.0873504 -1.3419179 0.6683863 -1.7272546 -2.1343417 0.050914824 0.12054673 -0.5275422
0.0042798296 -0.5428736 -1.6485099 -1.8706689 1.3334788 -0.45228502 -0.76747537 1.780246
1.5193273 1.2860694 -0.30066872 -0.63193494 0.23134568 -0.0474805 0.20545043 1.6967305
0.17722006 0.2722901 1.3742304 -0.050273158 0.35699537 0.90365934 -0.30363417 -1.2538668
-0.67260385 1.2370769 -0.3106515 -0.3497386 -0.23132846 0.5955364 1.3227584 -0.06358704
-0.6401276 -0.7764027 0.44697645 -0.02736903 -1.2316718 -1.9443347 -2.101023 -2.587298
-0.8862287 -1.2025864 -3.0749643 1.2046666 0.3937928 1.0439433 0.0067940755 -0.22161913
0.92470264 0.19518052 -0.27954513 0.0705932 2.0715492 0.30870944 -0.7711732 0.0034960588
-0.35665873 -1.0186323 -1.4013495 -0.8083194 -0.021495698 0.022851031 -0.28379455 0.92326313
-1.202849 0.9331137 2.2959027 0.2632829 1.7092588 1.2335967 -0.5413605 0.4897483
-0.036168274 0.21930309 0.91385996 -0.4320573 0.33418486 -0.40447304 -2.348128 1.3926647
-0.54288685 -1.5802103 0.31000942 1.6979169 1.9519368 -0.39192718 0.32774368 -0.9286238
-0.16051061 0.07569937 -2.2777975 -0.09185344 0.52192813 0.0042032064 1.890435 0.44095504
-1.1692207 0.9712692 -0.18327148 0.49142224 0.3293546 -0.66666174 -0.81851625 0.2587142
-0.77063227 -0.33943295 1.1381079 0.3617513 0.32439184 0.25970876 0.14219499 -0.42291337
-0.006919045 0.14452772 -0.10866583 0.085082136 0.021832602 0.07769263 0.254937 -0.9456355
-0.51883775 0.20928282 -0.0041582654 -0.05011906 0.42831036 -0.17745776 0.24904102 -0.14451137
0.6758871 1.9610327 0.95901245 0.772036 0.8633164 -0.7612433 -0.6265121 0.49355114
-1.6319456 -1.9044116 0.059906915 -0.60885304 -0.60057396 0.7323974 1.0454094 1.2418476
1.6037837 1.3778037 1.246026 0.6664628 0.17311515 -0.12685066 -0.8774573 -2.9493816
-1.5571201 -1.2471385 -0.73058426 -1.2256002 -1.7663016 0.44228372 0.3651783 0.29873568
0.03891164 0.71148473 -0.13227643 1.412603 1.1001483 0.3896427 0.4643763 -0.60463685
-1.0748923 -0.026282229 1.529361 0.67297834 0.39445463 -0.15420036 -1.1331041 1.1915306
0.010908536 -1.4436543 1.8202473 0.9196602 -0.80785555 -1.2613009 0.2837666 -1.4794189
-0.77054083 -0.76824164 -0.8939148 -0.781074 -0.23380955 0.12452777 0.85133356 0.039298676
0.11394691 -1.6116954 -1.8983727 -1.1132022 -0.20755999 -0.3083665 -0.81686294 -1.6975675
-0.7491714 -0.60390204 -0.49259463 -0.36903515 -0.3879093 -0.11677493 0.43987703 0.40756106
1.3382127 0.8135469 -0.69612885 -0.2450446 -0.07876433 -0.1016319 -0.9530945 0.019922363
-0.03594184 -1.4126858 0.19791074 0.34303474 -1.0976917 -0.2320554 -0.33961594 -0.0870576
-0.46804738 -0.30192545 -0.01712915 1.0476514 1.5407584 -0.63313186 1.5233519 2.8963861
-1.9776996 0.107382566 0.849352 -0.42108265 -0.23705244 -1.0908068 -0.357635 -0.5187964
-0.36490983 0.14179003 0.0035170203 -0.5380041 -1.1961818 -0.739255 -0.018768376 -0.87781084
00000000: 4c2e 8bbf f7c3 abbf 5d1b 2b3f ae16 ddbf
00000010: 0e99 08c0 108c 503d 34e1 f63d 010d 07bf
00000020: d03d 8c3b c4f9 0abf 5f02 d3bf 1472 efbf
00000030: 6faf aa3f e791 e7be 4479 44bf 1adf e33f
00000040: 5179 c23f ec9d a43f 40f1 99be 7dc6 21bf
00000050: e2e5 6c3e ea7a 42bd 9961 523e 772e d93f
00000060: 2d79 353e 9c69 8b3e c8e6 af3f 3aeb 4dbd
00000070: 19c8 b63e 3856 673f f075 9bbe b57e a0bf
00000080: c42f 2cbf 8958 9e3f b70d 9fbe f010 b3be
00000090: 5ee1 6cbe 1375 183f 2650 a93f ec39 82bd
000000a0: 67df 23bf 54c2 46bf 19da e43e 0435 e0bc
000000b0: 6ca7 9dbf f6df f8bf 2977 06c0 4a96 25c0
000000c0: e2df 62bf 5aee 99bf 37cc 44c0 8432 9a3f
000000d0: 369f c93e ef9f 853f d6a0 de3b 20f0 62be
000000e0: 50b9 6c3f 67dd 473e 8a20 8fbe 2b93 903d
000000f0: 4394 0440 2a0f 9e3e 9b6b 45bf 221e 653b
00000100: f99b b6be 8b62 82bf 6c5f b3bf 05ee 4ebf
00000110: bf17 b0bc 1632 bb3c 854d 91be f95a 6c3f
00000120: f5f6 99bf 8ae0 6e3f 12f0 1240 04cd 863e
00000130: fec8 da3f 7fe6 9d3f 9a96 0abf 4ac0 fa3e
00000140: 2f25 14bd fd90 603e baf2 693f 9d36 ddbe
00000150: 471a ab3e 1717 cfbe bb47 16c0 d642 b23f
00000160: a2fa 0abf 5544 cabf 8eb9 9e3e 5755 d93f
00000170: 11d9 f93f aeaa c8be 05ce a73e 4aba 6dbf
00000180: e55c 24be 4508 9b3d 6fc7 11c0 a81d bcbd
00000190: 159d 053f 0dbb 893b c6f9 f13f dcc4 e13e
000001a0: 06a9 95bf 19a5 783f 85ab 3bbe b29b fb3e
000001b0: 2ba1 a83e 58aa 2abf 488a 51bf 3076 843e
000001c0: 2848 45bf 28ca adbe 85ad 913f 7737 b93e
000001d0: b016 a63e 8cf8 843e 909b 113e 1a88 d8be
000001e0: 28b9 e2bb 13ff 133e 318c debd 8b3f ae3d
000001f0: 49da b23c 501d 9f3d 1a87 823e 2b15 72bf
00000200: 8dd2 04bf 3c4e 563e 0f42 88bb a549 4dbd
00000210: 7f4b db3e 7db7 35be 9c04 7f3e cafa 13be
00000220: f006 2d3f 1f03 fb3f d781 753f 27a4 453f
00000230: 4e02 5d3f d7e0 42bf 1963 20bf bcb2 fc3e
00000240: 98e3 d0bf c2c3 f3bf f460 753d cbdd 1bbf
00000250: 37bf 19bf 657e 3b3f facf 853f ddf4 9e3f
00000260: c948 cd3f df5b b03f c87d 9f3f 4e9d 2a3f
00000270: 1945 313e 24e5 01be 0ba1 60bf abc2 3cc0
00000280: b64f c7bf 3ca2 9fbf 9207 3bbf 78e0 9cbf
00000290: 2c16 e2bf 0373 e23e a6f8 ba3e e2f3 983e
000002a0: d061 1f3d dd23 363f 7973 07be 2dd0 b43f
000002b0: a9d1 8c3f 3f7f c73e bbc2 ed3e 7bc9 1abf
000002c0: 1296 89bf d44d d7bc 1ac2 c33f 4f48 2c3f
000002d0: f5f5 c93e b3e6 1dbe 8e09 91bf 1384 983f
000002e0: b7b9 323c aac9 b8bf ddfd e83f da6e 6b3f
000002f0: 9fcf 4ebf 4f72 a1bf db49 913e 995d bdbf
00000300: 2a42 45bf 7cab 44bf 9ad7 64bf 77f4 47bf
00000310: c56b 6fbe 6a08 ff3d fff0 593f a6f7 203d
00000320: ff5c e93d 094c cebf e0fd f2bf 697d 8ebf
00000330: 9b8a 54be 37e2 9dbe ee1d 51bf e449 d9bf
00000340: b2c9 3fbf 5399 1abf 5d35 fcbe 2df2 bcbe
00000350: 0c9c c6be b227 efbd 9037 e13e d8ab d03e
00000360: 8e4a ab3f 9c44 503f 8035 32bf f9ec 7abe
00000370: 314f a1bd 6324 d0bd 00fe 73bf 3934 a33c
00000380: c037 13bd e3d2 b4bf 1da9 4a3e 40a2 af3e
00000390: 2981 8cbf ee9f 6dbe 24e2 adbe 414b b2bd
000003a0: e8a3 efbe f995 9abe 6e52 8cbc 7119 863f
000003b0: 9237 c53f ee14 22bf 32fd c23f 645e 3940
000003c0: 4325 fdbf 64eb db3d 226f 593f 2598 d7be
000003d0: e0bd 72be 8f9f 8bbf ef1b b7be d7cf 04bf
000003e0: 76d5 babe 6831 113e cf7d 663b a3ba 09bf
000003f0: 7c1c 99bf d13f 3dbf 23c0 99bc 36b8 60bf

block3.conv2.bias f4 [8]
-1.571811e-07 7.950628e-08 1.5015277e-07 4.4824834e-08 1.4341718e-07 -1.1883214e-07 3.5784586e-07 1.693578e-07
00000000: 9dc5 28b4 0abd aa33 ae39 2134 6d85 4033
00000010: 37fe 1934 a930 ffb3 f61d c034 b8d8 3534

block3.n2.weight f4 [8]
4.392635 3.264305 2.965944 3.2596235 3.0453413 3.8168266 3.6802104 4.2956614
00000000: 7790 8c40 60ea 5040 07d2 3d40 ac9d 5040
00000010: dfe6 4240 e346 7440 9188 6b40 0f76 8940

block3.n2.bias f4 [8]
-1.9245166 -0.8462895 -0.23166342 0.16223724 -1.451668 -0.22210027 0.06539506 -2.3142016
00000000: 8f56 f6bf 6ea6 58bf 2d39 6dbe 8521 263e
00000010: 42d0 b9bf 416e 63be d8ed 853d e11b 14c0

block3.n2.running_mean f4 [8]
-16.074413 11.810418 -16.882465 -15.907482 -9.805479 -6.1499357 -32.480183 -29.436842
00000000: 6698 80c1 79f7 3c41 4a0f 87c1 0c85 7ec1
00000010: 3ee3 1cc1 46cc c4c0 b5eb 01c2 a77e ebc1

block3.n2.running_var f4 [8]
760.5976 674.042 482.107 383.82367 392.84186 654.94324 655.4308 709.4239
00000000: 3f26 3e44 b082 2844 b20d f143 6ee9 bf43
00000010: c26b c443 5ebc 2344 92db 2344 215b 3144

block3.conv3.weight f4 [8, 8, 3, 3]
0.15443116 0.12308831 1.4831886 0.48767018 1.525272 2.57622 -0.71927243 0.7124091
1.4270861 -1.3765063 -1.0172948 -2.2754362 -0.34931678 -0.42841414 -1.4084102 0.21211039
-0.19571811 1.1786071 0.7486411 0.9067738 0.10296605 0.41250178 0.6533301 0.9333499
1.287842 0.8231571 -0.66916376 0.46794397 1.0750415 0.65151954 0.066350825 0.16959293
-0.18164507 0.64462066 0.29303375 0.04870799 0.9822057 0.63528514 0.8210143 1.4354577
0.39920947 -0.43027237 -0.56437916 -0.6366945 -0.87711155 -0.38282487 -0.8054187 0.37480545
-0.6567705 -0.95578253 -0.70659244 1.5478736 1.3205281 0.2331638 1.1584061 1.3734518
0.93093836 -0.9249299 0.64187 0.39212635 -2.8252857 -1.1944052 -0.38221604 -1.0195922
-0.27088043 -0.54153687 1.4950725 1.5827886 1.976954 1.2833365 0.2947112 -0.27053198
-0.30998093 -0.7739354 -1.5385071 -0.3267746 -0.4226919 -0.20373277 -0.1563616 0.16920453
0.018554572 1.0634112 1.1750573 2.0337017 -0.4242631 -0.016291346 0.72617435 -0.19061196
0.22730328 -0.0685106 0.78835994 0.34560654 0.033760183 1.3734375 0.98052514 0.80361664
1.0391904 1.1018958 1.3197927 0.032460276 -0.5621256 -0.18258767 -1.1612424 -0.48396698
-0.036394615 -1.3481823 0.08303398 0.5157128 0.14557 0.34640384 0.8165383 0.15313679
0.14145823 0.5288049 -0.51894677 0.36554784 0.72107464 0.5533622 0.217725 0.054579247
0.1677039 -0.3453951 -0.12902221 1.4405811 0.406021 0.0011471257 0.5580728 1.3270324
1.4336679 -0.47995284 -0.039244838 1.1811957 -0.74126977 -0.46651292 0.07504876 -0.34997424
0.2449074 0.44994357 -0.4854934 0.007466761 -0.37288585 0.20425384 -0.13015099 -0.47150066
0.6150395 0.9142709 1.1009201 -0.4414731 -0.22741416 0.7115353 -0.93907714 -0.060638715
0.5192298 -0.63239133 -0.74616283 0.65512335 0.6885718 1.072223 1.2216567 0.8790446
0.74979675 1.5264162 -1.2663372 -0.6574424 -0.42924714 -0.14554672 -0.46503064 -0.9079499
0.010103186 -0.013812609 -0.33027732 2.016239 1.1560105 1.15015 -0.45325467 -0.18873575
0.5704838 -0.13378276 0.10839754 1.0062182 -0.4202874 -0.5132608 -0.13590233 -0.34509975
-0.21300295 -0.42600963 0.25983316 0.28415218 -0.2747726 0.28406626 0.37813997 -0.03158543
0.23767127 -0.83128273 -1.1584197 1.0990206 -0.97317785 -0.5666835 -0.16657522 -0.071677595
0.03436587 -0.9063711 -0.8002044 -0.31810454 -1.482572 -0.42420214 0.61353385 -1.1522999
-0.9331272 -1.3855854 -0.19293506 -0.17988552 -1.2652512 -0.47105965 -0.30524504 -0.31485763
0.40248048 0.91895556 1.9811527 0.52495074 0.8865189 1.1788363 0.7273034 0.19726078
0.09230264 -0.10294065 -0.78218514 0.2468103 -0.21976921 -0.16541173 1.5347502 0.5857637
1.2206349 2.2124546 0.21255809 -0.24699506 0.59792304 -0.15213123 -0.11063895 0.4222419
-1.2264277 -0.077044204 1.7178619 -0.2741341 -1.2341506 -1.2257632 0.3297888 -0.25481948
-0.2186521 0.25615036 0.039241478 -0.09635434 0.2567794 -0.24624231 -0.86758703 -0.27013955
00000000: 3423 1e3e b915 fc3d 20d9 bd3f e8af f93e
00000010: 1d3c c33f cae0 2440 3d22 38bf 7160 363f
00000020: c2aa b63f 5c31 b0bf b736 82bf bfa0 11c0
00000030: a6d9 b2be 1959 dbbe c946 b4bf 7733 593e
00000040: 546a 48be 99dc 963f f1a6 3f3f 5422 683f
00000050: dddf d23d 6f33 d33e a440 273f 05f0 6e3f
00000060: 02d8 a43f 6cba 523f 514e 2bbf 5a96 ef3e
00000070: f69a 893f fcc9 263f f1e2 873d c5a9 2d3e
00000080: 2a01 3abe dc05 253f 8508 963e 0882 473d
00000090: d571 7b3f 0ca2 223f fe2d 523f 14bd b73f
000000a0: 2f65 cc3e a94c dcbe 277b 10bf 69fe 22bf
000000b0: 628a 60bf 9f01 c4be ec2f 4ebf 80e6 bf3e
000000c0: 1d22 28bf 2aae 74bf 3ee3 34bf b920 c63f
000000d0: 1107 a93f 7ec2 6e3e a746 943f 45cd af3f
000000e0: fa51 6e3f 35c8 6cbf 9851 243f c9c4 c83e
000000f0: 7bd1 34c0 45e2 98bf d2b1 c3be ff81 82bf
00000100: d7b0 8abe 29a2 0abf 895e bf3f d198 ca3f
00000110: d40c fd3f 5f44 a43f 63e4 963e 2b83 8abe
00000120: d2b5 9ebe a120 46bf cded c4bf 004f a7be
00000130: 136b d8be 539f 50be 411d 20be f443 2d3e
00000140: c2ff 973c dc1d 883f 4768 963f 2b28 0240
00000150: 0339 d9be 6e75 85bc 90e6 393f c82f 43be
00000160: 31c2 683e 494f 8cbd f5d1 493f 57f3 b03e
00000170: 1e48 0a3d cdcc af3f b203 7b3f d2b9 4d3f
00000180: 3104 853f ec0a 8d3f f8ee a83f 11f5 043d
00000190: 77e7 0fbf 43f8 3abe 97a3 94bf 85ca f7be
000001a0: 8512 15bd 3d91 acbf b80d aa3d c105 043f
000001b0: 4d10 153e d85b b13e a708 513f e4cf 1c3e
000001c0: 6dda 103e c25f 073f b2d9 04bf 1629 bb3e
000001d0: 5998 383f 25a9 0d3f 4df3 5e3e 7d8e 5f3d
000001e0: 92ba 2b3e a0d7 b0be 661e 04be f664 b83f
000001f0: fce1 cf3e 275b 963a dcdd 0e3f 33dc a93f
00000200: 6e82 b73f 61bc f5be 32bf 20bd 6c31 973f
00000210: dbc3 3dbf c8da eebe 2ab3 993d d32f b3be
00000220: 01c9 7a3e 015f e63e 9792 f8be bbab f43b
00000230: e5ea bebe eb27 513e 4d46 05be 8968 f1be
00000240: 3b73 1d3f a80d 6a3f f3ea 8c3f c308 e2be
00000250: 42df 68be 2d27 363f 5c67 70bf 4d60 78bd
00000260: 3fec 043f 66e4 21bf 8704 3fbf 2ab6 273f
00000270: 3e46 303f 9a3e 893f 3f5f 9c3f 1109 613f
00000280: aef2 3f3f 9b61 c33f 5617 a2bf 254e 28bf
00000290: 48c6 dbbe 330a 15be 7f18 eebe 686f 68bf
000002a0: d587 253c 484e 62bc 1c1a a9be 0f0a 0140
000002b0: 27f8 933f 1d38 933f ff10 e8be f243 41be
000002c0: 3a0b 123f 59fe 08be 88ff dd3d c2cb 803f
000002d0: e92f d7be 0f65 03bf fb29 0bbe eab0 b0be
000002e0: 721d 5abe ef1d dabe da08 853e 657c 913e
000002f0: ffae 8cbe 2271 913e 909b c13e b95f 01bd
00000300: 1960 733e f2ce 54bf 1947 94bf b5ac 8c3f
00000310: 2f22 79bf 2b12 11bf b292 2abe b4cb 92bd
00000320: 3ac3 0c3d f007 68bf 32da 4cbf 99de a2be
00000330: ebc4 bdbf 0631 d9be 8e10 1d3f 907e 93bf
00000340: 6de1 6ebf dd5a b1bf c590 45be e933 38be
00000350: c0f3 a1bf bb2e f1be 1449 9cbe 0535 a1be
00000360: ec11 ce3e ac40 6b3f 6996 fd3f 2c63 063f
00000370: e7f2 623f 1ce4 963f 8e30 3a3f bbfe 493e
00000380: 2b09 bd3d 8cd2 d2bd 493d 48bf d7bb 7c3e
00000390: 2e0b 61be b161 29be b272 c43f 9cf4 153f
000003a0: c43d 9c3f db98 0d40 d4a8 593e 46ec 7cbe
000003b0: 7c11 193f 4ac8 1bbe ac96 e2bd 1730 d83e
000003c0: 95fb 9cbf 5ac9 9dbd e6e2 db3f 4e5b 8cbe
000003d0: a6f8 9dbf cfe5 9cbf 14da a83e b377 82be
000003e0: 56e6 5fbe 2426 833e acbb 203d 6d55 c5bd
000003f0: 9778 833e f226 7cbe 2f1a 5ebf bb4f 8abe
